notebooks/pretrained-models/checkpoint_csnn_cuda.pth (torch, 759997 bytes, 14 tensors)

conv.weight f4 [8, 1, 3, 3]
0.26130316 0.39923126 0.30746305 0.305031 0.034714382 0.18388301 0.07150748 0.22617911
0.0016080453 0.031202648 0.20940381 0.012277799 -0.050941966 0.16344003 -0.11233838 -0.12399379
-0.38193208 -0.11299673 0.15670535 0.009700224 -0.0020233004 0.344228 0.36471143 -0.18765306
-0.19824655 -0.022350123 -0.123137094 0.12826328 -0.0898486 -0.08499792 -0.2941639 -0.35223967
-0.37280905 -0.1715056 -0.35645327 -0.30678806 0.3251758 0.094464615 -0.21161668 0.10665994
-0.08303313 -0.2282228 0.006288004 -0.16168955 -0.23873207 0.20605129 -0.2204219 -0.24307795
0.13418178 -0.11664422 -0.25615627 -0.23297432 -0.24787803 -0.2649014 0.19879402 0.091033086
-0.050613146 -0.23356988 0.3034798 -0.23517476 0.117693335 -0.09259024 -0.023485526 -0.18611012
0.24700141 -0.15762357 -0.060230147 0.31215826 -0.19096994 -0.10733482 0.093322 0.1096504
00000000: 87c9 853e 0a68 cc3e cc6b 9d3e 062d 9c3e
00000010: ab30 0e3d d44b 3c3e 8472 923d 7f9b 673e
00000020: 0cc5 d23a b29c ff3c f46d 563e d228 493c
00000030: 86a8 50bd d35c 273e aa11 e6bd 75f0 fdbd
00000040: 9a8c c3be d46a e7bd 5e77 203e b0ed 1e3c
00000050: 5999 04bb a73e b03e 75bb ba3e 2028 40be
00000060: 2501 4bbe 9b17 b7bc 4d2f fcbd 7357 033e
00000070: 8b02 b8bd 6413 aebd a79c 96be c258 b4be
00000080: d4e0 bebe 2a9f 2fbe 0b81 b6be 5313 9dbe
00000090: 717d a63e aa76 c13d 0bb2 58be 8770 da3d
000000a0: 460d aabd 3db3 69be 9a0b ce3b f291 25be
000000b0: 2e76 74be 1cff 523e 47b6 61be 6de9 78be
000000c0: f366 093e 2ae3 eebd ea26 83be d290 6ebe
000000d0: bdd3 7dbe 28a1 87be a990 4b3e 8e6f ba3d
000000e0: bb4f 4fbd f12c 6fbe b461 9b3e a7d1 70be
000000f0: 3409 f13d f49f bdbd b864 c0bc a793 3ebe
00000100: f0ed 7c3e 1368 21be e3b3 76bd 35d3 9f3e
00000110: a08d 43be 5cd2 dbbd 9b1f bf3d 6490 e03d

bn.weight f4 [8]
0.93588495 0.9366324 0.98284346 0.98706144 0.9084644 0.9205013 1.0231191 1.011907
00000000: 2896 6f3f 24c7 6f3f a19b 7b3f 0fb0 7c3f
00000010: 1f91 683f f9a5 6b3f 91f5 823f 2b86 813f

bn.bias f4 [8]
-0.078074686 -0.066428006 -0.012967009 -0.3044928 -0.13377686 -0.26702893 -0.09053136 -0.118738376
00000000: 9fe5 9fbd 680b 88bd 9473 54bc 7be6 9bbe
00000010: cdfc 08be 04b8 88be 8168 b9bd 1b2d f3bd

bn.running_mean f4 [8]
0.5054803 -0.10337248 0.097320974 -0.53839624 -0.11110869 -0.350954 0.020807479 0.017533282
00000000: 2867 013f f3b4 d3bd 3850 c73d 56d4 09bf
00000010: f48c e3bd 3eb0 b3be 7274 aa3c f5a1 8f3c

bn.running_var f4 [8]
0.36105615 0.04298022 0.054908972 0.42492124 0.062974945 0.2020166 0.02732832 0.030356672
00000000: 5adc b83e 070c 303d 3be8 603d 478f d93e
00000010: 02f9 803d 71dd 4e3e a4df df3c 8eae f83c

linear.weight f4 [10, 6272]
-0.0017012545 0.010248384 0.0066786367 0.0014564047 -0.03241696 -0.03271337 -0.06772337 -0.0074760676
0.005612118 -0.033600774 -0.03129601 -0.043441933 -0.029762095 -0.023543652 -0.010901276 -0.040265817
-0.029456709 -0.018799499 -0.032970034 0.009481657 0.011403449 0.035429724 -0.023995876 -0.022961507
-0.05402752 -0.013522348 -0.033273943 0.0038417333 -0.00036183672 0.019863464 -0.013496577 -0.022009274
-0.09619008 -0.07158727 -0.030467894 -0.0354843 -0.024723234 -0.028930025 -0.05230874 0.016661573
-0.007949485 -0.015769359 -0.03366691 0.0103422515 0.019854179 0.009384809 0.0049695102 0.021848794
0.01354849 -0.022837376 -0.013399634 -0.029355193 -0.035422917 -0.00205943 0.0052821157 -0.029120326
0.0036976459 -0.036736265 -0.017344872 -0.073073104 -0.062441688 -0.03701347 -0.07462388 -0.048803307
-0.044000182 -0.033168238 0.014450718 0.02159608 0.010785476 0.023046412 0.028605714 0.016486239
0.029492341 0.0402646 0.0021734096 -0.013392195 -0.012062048 0.0014521303 -0.016878545 0.015830837
-0.010438638 0.0049209706 -0.0041664504 -0.022604894 -0.02353391 -0.048188344 -0.06053732 -0.010226356
-0.017966857 -0.020381298 -0.013498412 -0.0061774286 -0.024175884 -0.019725211 -0.0005430215 -0.008104303
-0.00151938 -0.0026581434 -0.0069732703 -0.009965209 0.01434915 0.013501767 0.0063711093 0.021963276
0.026434036 0.004240653 -0.004716336 0.018556487 0.026026186 0.01575206 -0.044611957 -0.052202985
-0.043154057 -0.063300066 -0.039627276 -0.0026216938 -0.0074565583 -0.031565852 -0.0016459733 0.0021571338
-0.023372458 -0.016981887 -0.014497628 0.012683246 0.0064361542 0.010957958 -0.010432336 0.003250898
0.0074346643 0.007152348 -0.004193927 -0.0028910188 0.005057601 0.04401416 0.027106315 0.018147344
0.03054611 0.03145032 -0.025834225 -0.07961969 -0.036820907 -0.03171955 -0.0043528797 -0.00980586
-0.01596837 0.011954028 0.0068531763 -0.02734454 -0.009854681 0.00090821995 -0.0029182008 -0.0009868222
-0.018093389 0.0027782633 -0.0111326305 -0.0050787944 -0.013924462 -0.0036653941 0.02396124 -0.015281728
-0.004914522 -0.0015002879 0.036579788 0.0074040266 0.046144057 0.02939789 0.005236389 -0.073248275
0.006349794 -0.005455956 -0.0015031204 0.014139107 -0.024756262 0.020831462 0.012764354 -0.01486497
-0.030123476 -0.0029418117 -0.016118215 -0.007460482 -0.008678133 -0.008767255 -0.006228048 0.004714533
0.012529941 0.001129245 -0.0041074036 0.013166752 -0.009316497 0.0051773954 0.022801658 0.0061846944
0.03287187 -0.016151924 -0.038423173 -0.03618173 -0.0066522313 0.00016522512 0.040608164 0.024229134
0.01937439 0.02699076 0.009661502 -0.012397174 -0.024212195 -0.004018772 -0.0065388842 -0.001415778
0.00016347623 0.00029494465 0.0037433063 0.002830964 0.0055634608 -0.013883338 0.0043359078 0.0073831095
-0.012036569 0.0047568553 0.026580455 0.031721987 0.036627408 0.029990287 0.010459046 -0.032446884
0.048198614 0.06820368 0.0429326 0.025189111 -0.0025844353 0.024304481 0.020018127 -0.026483215
-0.009898801 0.018297557 -0.004828812 -0.006115815 0.0012996695 -0.007859856 -0.00019242158 -0.015955025
0.0015125416 0.017060451 0.0058812536 0.005538995 -0.002427008 0.008183159 0.014311661 0.021852437
-0.011356699 0.00887599 -0.003789329 0.048820265 -0.024379613 0.0019102253 0.033673994 0.009479302
00000000: a1fc deba d7e8 273c 77d8 da3b d5e4 be3a
00000010: a5c7 04bd 74fe 05bd 8db2 8abd cdf9 f4bb
00000020: dce5 b73b f7a0 09bd 3f30 00bd 2bf0 31bd
00000030: a3cf f3bc 9ede c0bc 449b 32bc c5ed 24bd
00000040: 324f f1bc 6801 9abc 960b 07bd f458 1b3c
00000050: 88d5 3a3c c21e 113d 0093 c4bc c519 bcbc
00000060: f64b 5dbd d78c 5dbc 424a 08bd 97c5 7b3b
00000070: e7b4 bdb9 b4b8 a23c bf20 5dbc cb4c b4bc
00000080: 4eff c4bd 599c 92bd ce97 f9bc fc57 11bd
00000090: 6188 cabc a9fe ecbc b041 56bd da7d 883c
000000a0: 8f3e 02bc be2e 81bc 50e6 09bd 8c72 293c
000000b0: 3ba5 a23c bec2 193c 46d7 a23b 3efc b23c
000000c0: 7cfa 5d3c 7315 bbbc 238a 5bbc 4d7a f0bc
000000d0: 9f17 11bd 80f7 06bb 9915 ad3b c08d eebc
000000e0: 3454 723b c478 16bd d516 8ebc 5aa7 95bd
000000f0: dbc2 7fbd 709b 17bd 68d4 98bd fae5 47bd
00000100: 8939 34bd 6bdb 07bd b4c2 6c3c 43ea b03c
00000110: 91b5 303c d4cb bc3c 8856 ea3c 260e 873c
00000120: ec99 f13c 7eec 243d c36f 0e3b f06a 5bbc
00000130: e59f 45bc 6855 be3a e044 8abc acaf 813c
00000140: d206 2bbc 1840 a13b b886 88bb e62d b9bc
00000150: 30ca c0bc 2461 45bd fbf5 77bd 728c 27bc
00000160: 3b2f 93bc aef6 a6bc 7228 5dbc 076c cabb
00000170: 810c c6bc c496 a1bc 8e59 0eba e9c7 04bc
00000180: ef25 c7ba 3f34 2ebb 0880 e4bb 1e45 23bc
00000190: b218 6b3c 8436 5d3c bdc4 d03b 54ec b33c
000001a0: 318c d83c 2df5 8a3b 7e8b 9abb c603 983c
000001b0: de34 d53c 770a 813c 07bb 36bd ccd2 55bd
000001c0: 4fc2 30bd 77a3 81bd 3650 22bd b9d0 2bbb
000001d0: 2556 f4bb 324b 01bd b3bd d7ba b35e 0d3b
000001e0: 9977 bfbc 991d 8bbc 7687 6dbc 64cd 4f3c
000001f0: 60e6 d23b 0289 333c 63ec 2abc 050d 553b
00000200: 7c9e f33b 3e5e ea3b 366d 89bb 3f77 3dbb
00000210: 3bba a53b 3148 343d 100e de3c bda9 943c
00000220: d63b fa3c 0dd2 003d 4ca2 d3bc a60f a3bd
00000230: 85d1 16bd 5cec 01bd 9aa2 8ebb c2a8 20bc
00000240: 19d0 82bc d4da 433c 9c90 e03b a801 e0bc
00000250: 8775 21bc 9c15 6e3a 493f 3fbb 4258 81ba
00000260: 9638 94bc 8613 363b a365 36bc 046c a6bb
00000270: 6d23 64bc 1c37 70bb 5d4a c43c 3660 7abc
00000280: 000a a1bb 4fa5 c4ba b0d4 153d 7a9d f23b
00000290: 8d01 3d3d d8d3 f03c 0496 ab3b 3103 96bd
000002a0: ef11 d03b e0c7 b2bb 5a04 c5ba b7a7 673c
000002b0: a5cd cabc bea6 aa3c 9521 513c 348c 73bc
000002c0: 82c5 f6bc 69cb 40bb 590a 84bc 0f77 f4bb
000002d0: ba2e 0ebc 88a4 0fbc a714 ccbb 5f7c 9a3b
000002e0: 624a 4d3c 2d03 943a 6697 86bb 5cb9 573c
000002f0: 38a4 18bc 24a7 a93b 8bca ba3c faa8 ca3b
00000300: a7a4 063d 0a51 84bc 9e61 1dbd 4b33 14bd
00000310: f6fa d9bb 4840 2d39 bf54 263d 2d7c c63c
00000320: 0ab7 9e3c ba1b dd3c 474b 1e3c 841d 4bbc
00000330: a758 c6bc e7af 83bb 2344 d6bb a091 b9ba
00000340: d16a 2b39 cda2 9a39 4252 753b b287 393b
00000350: b14d b63b f176 63bc 3b14 8e3b 03ee f13b
00000360: 0835 45bc 65df 9b3b 41bf d93c eaee 013d
00000370: 9f06 163d 31ae f53c 6b5c 2b3c 06e7 04bd
00000380: e96b 453d 5fae 8b3d 18da 2f3d 6559 ce3c
00000390: a15f 29bb 311a c73c 0efd a33c 54f3 d8bc
000003a0: 952e 22bc c2e4 953c 033b 9ebb 2d67 c8bb
000003b0: ac59 aa3a a0c6 00bc c6c4 49b9 1db4 82bc
000003c0: 7940 c63a 5cc2 8b3c 88b7 c03b 7580 b53b
000003d0: 700e 1fbb a812 063c 757b 6a3c e203 b33c
000003e0: 7311 3abc 9a6c 113c 6456 78bb c2f7 473d
000003f0: c1b7 c7bc 8660 fa3a beed 093d 134f 1b3c

exp_avg f4 [8, 1, 3, 3]
-0.00015309412 -0.00020979095 -0.00025577622 0.00029411505 5.771945e-05 0.00011009161 0.00022510932 0.00032694786
5.4645283e-05 0.00022631868 0.00060656853 0.00054251193 -2.858823e-05 0.0008498616 0.00052115734 0.00025046742
0.00035678432 0.0005000802 -1.9646017e-05 -0.0002729672 -0.0001694275 0.00044174457 -0.00012670856 -0.00021448838
0.0005673443 0.00053979346 0.00014304527 -8.7298235e-05 -0.00026772794 -0.0003099871 8.4056366e-05 9.81345e-05
-5.3511663e-05 0.0002467697 5.090933e-06 -0.00014253371 0.0015952045 0.0009956254 0.00081938994 0.0010196676
0.0012008714 0.001029413 0.0012298041 0.00078806287 0.0003977392 0.0002904003 4.5644556e-05 4.6067646e-05
0.0003258808 0.00026918025 2.0160694e-05 0.00012443458 0.00011257286 -4.1209885e-05 -0.00046056582 -0.0002892583
-0.00051803014 -0.00067830744 -0.0014895375 -0.0011603895 -0.00083334395 -0.001839003 -0.0016382675 -7.4992017e-06
-0.00030642384 -0.00066834566 -0.00047005047 -0.00095941836 -0.00071207446 1.615534e-05 0.00058088114 0.00046047563
00000000: e487 20b9 54fb 5bb9 b419 86b9 7433 9a39
00000010: ca17 7238 fce0 e638 530b 6c39 336a ab39
00000020: ed32 6538 f54f 6d39 2002 1f3a 5c37 0e3a
00000030: c2d0 efb7 3fc9 5e3a 479e 083a 2b51 8339
00000040: c80e bb39 d017 033a 80cd a4b7 0a1d 8fb9
00000050: 59a8 31b9 f499 e739 12dd 04b9 49e8 60b9
00000060: d5b9 143a ed80 0d3a 6cfe 1539 e213 b7b8
00000070: d65d 8cb9 c485 a2b9 6b47 b038 8fcd cd38
00000080: b671 60b8 de60 8139 c8d2 aa36 1a75 15b9
00000090: 2e16 d13a a57f 823a 54cc 563a 5ea6 853a
000000a0: 8f66 9d3a 5eed 863a 6131 a13a 0196 4e3a
000000b0: a787 d039 de40 9839 7872 3f38 c238 4138
000000c0: fbda aa39 c320 8d39 c31e a937 a77a 0239
000000d0: 1815 ec38 c7d8 2cb8 1978 f1b9 98a7 97b9
000000e0: 6acc 07ba 71d0 31ba 963c c3ba 3618 98ba
000000f0: c474 5aba b30a f1ba 23bb d6ba a7a1 fbb6
00000100: 83a7 a0b9 eb33 2fba 1b71 f6b9 7a81 7bba
00000110: 82aa 3aba 5485 8737 4646 183a fe6b f139

exp_avg_sq f4 [8, 1, 3, 3]
3.0214832e-07 2.3743075e-07 3.569696e-07 4.5423644e-07 2.9906758e-07 3.1859315e-07 5.0554246e-07 5.0546225e-07
4.239519e-07 3.0872663e-05 4.082885e-05 2.8873459e-05 2.30903e-05 3.5965535e-05 2.0994055e-05 1.7541863e-05
7.3362103e-06 1.7433025e-05 1.4625721e-06 1.575778e-06 1.8741878e-06 1.4052408e-06 1.2671896e-06 2.312537e-06
2.5952809e-06 2.033206e-06 2.1411424e-06 1.3239357e-06 5.1357387e-07 4.4915873e-07 4.2367503e-07 1.511842e-07
1.3132554e-07 3.887348e-07 1.8840757e-07 3.5724986e-07 4.5699915e-05 3.09843e-05 1.6412943e-05 3.227547e-05
2.130115e-05 1.3240796e-05 2.471551e-05 1.7321257e-05 1.0483041e-05 1.5043361e-06 6.1627776e-07 4.1162613e-07
1.3036779e-06 5.889197e-07 2.0696015e-07 6.138632e-07 2.1799754e-07 1.3949e-07 1.6499656e-05 1.6536875e-05
1.6446667e-05 1.7906747e-05 1.5419952e-05 1.87697e-05 1.3328629e-05 1.4618141e-05 1.5922647e-05 1.1787675e-05
1.0739162e-05 1.116891e-05 1.14729555e-05 1.0892713e-05 1.26532295e-05 1.2215503e-05 1.0110313e-05 9.608267e-06
00000000: f336 a234 78f0 7e34 87a5 bf34 c8dd f334
00000010: 898f a034 1c0b ab34 9db4 0735 1aaf 0735
00000020: 819b e334 457d 0138 a53f 2b38 4835 f237
00000030: 0bb2 c137 b3d9 1638 641c b037 dd26 9337
00000040: 9129 f636 233d 9237 984d c435 527f d335
00000050: 9a8c fb35 b59b bc35 4e14 aa35 1531 1b36
00000060: 962a 2e36 3772 0836 8cb0 0f36 16b2 b135
00000070: 87dc 0935 e823 f134 7475 e334 3255 2234
00000080: 7d02 0d34 4eb3 d034 144d 4a34 0ccc bf34
00000090: e9ad 3f38 24f5 0138 87ae 8937 865f 0738
000000a0: dfaf b237 c924 5e37 2754 cf37 1e4d 9137
000000b0: 51e0 2f37 98e8 c935 496e 2535 77fd dc34
000000c0: 08fa ae35 4116 1e35 c638 5e34 5cc8 2435
000000d0: b512 6a34 b8c6 1534 be68 8a37 abb8 8a37
000000e0: f3f6 8937 7236 9637 185a 8137 a073 9d37
000000f0: 079e 5f37 7040 7537 a091 8537 aec3 4537
00000100: 592c 3437 1a62 3b37 f87b 4037 d9bf 3637
00000110: 3549 5437 30f1 4c37 779f 2937 3133 2137

exp_avg f4 [8]
-0.00044175502 -0.0006207192 0.00019634051 -0.0006276638 0.00025561487 5.7693896e-06 -3.1941407e-05 0.00029076185
00000000: 5b9b e7b9 c3b7 22ba c1e0 4d39 ce89 24ba
00000010: 0c04 8639 ae96 c136 d3f8 05b8 6571 9839

exp_avg_sq f4 [8]
2.1395565e-06 5.1134352e-06 2.6668187e-07 3.9772103e-06 4.887787e-06 1.6930222e-06 3.515053e-07 3.1631788e-07
00000000: 4d95 0f36 1394 ab36 7a2c 8f34 fa73 8536
00000010: c501 a436 cd3b e335 85b6 bc34 66d2 a934

exp_avg f4 [8]
-0.0004894171 -0.001161284 0.0004426247 -0.0006532167 0.00031708382 8.720142e-05 0.00014187177 0.0007503309
00000000: 3a4c 00ba 3a36 98ba 1510 e839 a13c 2bba
00000010: 453e a639 e8df b638 6ac3 1439 dbb1 443a

exp_avg_sq f4 [8]
5.125058e-06 2.185514e-05 7.164129e-07 1.0744225e-05 2.4518047e-05 4.558977e-06 3.5193152e-06 3.219802e-06
00000000: eaf7 ab36 8e55 b737 854f 4035 1842 3437
00000010: 1bac cd37 50f9 9836 602d 6c36 c713 5836

exp_avg f4 [10, 6272]
0.0 0.0 -6e-45 1.8292414e-23 1.8087932e-09 1.9394176e-13 9.528777e-09 1.4307697e-07
3.9719814e-07 3.1791133e-06 6.6550538e-06 6.8364334e-06 1.177078e-05 -5.8688793e-06 5.9967483e-06 2.9432558e-06
-5.9734675e-06 -5.7853777e-06 -1.012936e-06 4.1789867e-06 1.6459195e-06 3.3358722e-07 5.269703e-07 -4.1206345e-09
1.5152436e-09 -4.9582648e-21 6e-45 0.0 0.0 1.1736166e-11 1.25108555e-08 -1.1675071e-15
2.3619782e-08 8.6668024e-08 2.4237204e-06 2.7818728e-06 4.3005225e-06 7.670977e-05 9.6211275e-05 6.3301704e-05
7.6467935e-05 3.34092e-05 -4.1333977e-05 -2.7515203e-05 6.425655e-06 3.570848e-05 3.1446496e-05 1.8073222e-05
1.3069213e-05 -4.347859e-06 8.33801e-06 -1.7328291e-07 -2.1909823e-09 3.3130082e-11 9.795696e-16 -5.0375724e-26
2.9240294e-10 2.9240294e-10 4.815124e-10 -8.4052164e-07 2.0705108e-06 5.4456477e-06 4.664932e-06 -5.016495e-05
-3.7573867e-05 2.9642517e-05 1.2195476e-05 0.00010946132 5.399602e-05 0.00015112631 3.4712193e-05 3.6513266e-06
7.024393e-05 -4.8281647e-05 2.6214057e-05 6.959721e-05 6.897501e-05 3.867836e-06 5.6813183e-06 2.685377e-05
7.520633e-06 8.9752655e-10 1.1509673e-12 7.0296676e-13 2.9240294e-10 1.3090857e-08 -2.4303398e-08 5.7110587e-06
4.4287526e-06 1.7332653e-05 3.422846e-05 -2.5456538e-07 2.1752929e-05 2.8012053e-05 8.816553e-05 2.1833283e-05
0.00015003332 -5.828733e-06 1.00260695e-05 5.0093393e-05 7.835384e-05 8.4036416e-05 4.079407e-05 4.5617573e-05
-2.0655592e-05 -4.9618346e-05 -1.7435888e-05 3.4422214e-05 -5.988944e-06 1.6714597e-07 6.3266526e-08 1.9526695e-13
1.7398544e-10 8.9410515e-09 2.2509075e-06 5.861823e-06 -3.6089623e-06 -8.983169e-06 3.668071e-05 -5.0624138e-05
-0.00012129561 1.25128445e-05 -3.1791177e-07 7.301484e-05 5.85515e-05 2.5934953e-05 -3.3620786e-06 3.529429e-05
3.7285947e-05 4.8508933e-05 0.00014257531 3.6190704e-05 -7.575629e-05 -8.637888e-05 4.4267024e-05 8.383208e-06
-3.7801306e-05 -3.605309e-05 4.0061955e-06 -1.406734e-07 2.9240294e-10 1.9242018e-06 1.0587428e-06 -3.534725e-05
-3.1628777e-05 9.029886e-06 6.875852e-05 -6.0066362e-05 2.2180762e-05 7.821167e-05 0.00012415221 6.926698e-05
2.856451e-05 -4.550633e-05 -2.066145e-05 4.045955e-05 0.00012244782 6.982294e-05 5.63921e-05 -6.8047804e-05
-5.2397758e-05 -9.576995e-05 2.5233901e-05 7.8388496e-07 -1.6551161e-05 -4.3802127e-05 3.0304866e-06 9.487583e-08
-3.8339144e-07 -8.256908e-07 8.0555e-06 -7.816924e-06 2.6616222e-05 -4.2994565e-05 1.6701248e-05 -2.7505394e-05
-1.793541e-05 -5.66159e-05 6.775918e-06 -2.1320348e-05 -0.00010602496 -0.0002028329 -0.00012783695 -5.2711104e-05
-2.8726754e-05 -1.2000369e-05 -1.5838517e-05 7.7532995e-06 -3.861981e-05 -6.8457884e-05 4.3106797e-05 -1.7603872e-05
-1.7476881e-05 -2.890178e-05 -1.8157823e-05 -3.0082692e-06 5.664251e-09 -2.5611055e-06 -2.131331e-05 -2.0627795e-06
1.5389378e-05 1.6521855e-05 -2.316861e-06 -3.194507e-05 -0.00011740167 -3.222536e-07 -3.0283274e-05 -7.993351e-05
-0.000111368776 -0.00010299853 -5.1072162e-05 -7.39699e-05 -4.9921153e-05 -1.3085811e-05 -1.2022781e-05 2.2014376e-05
-7.279145e-05 -8.3155974e-05 -2.4704896e-05 6.427762e-05 -1.710858e-05 -3.510753e-05 -1.5302805e-05 1.7157097e-06
-1.0558521e-05 -3.4888806e-05 -3.517024e-05 -3.4744888e-05 -9.04362e-06 -1.0618522e-05 -9.3928895e-05 -0.00010594243
-0.00015692745 -5.6940196e-05 -9.4084564e-05 -7.622886e-05 -0.00013782545 -3.738672e-05 2.5861837e-05 -3.9430106e-05
-0.0001741536 -0.00016280405 1.9129966e-07 -3.1747262e-05 -7.592349e-05 -0.000115915376 -7.286341e-05 2.1182419e-05
-3.658424e-05 -5.6546243e-05 -5.543173e-05 3.2442726e-06 2.1655774e-06 -1.008637e-06 -4.1770636e-05 -3.573614e-05
00000000: 0000 0000 0000 0000 0400 0080 d3e9 b019
00000010: 4199 f830 e85b 5a2a 01b4 2332 b3a0 1934
00000020: 7f3e d534 c058 5536 7a4e df36 8464 e536
00000030: 1d7b 4537 4aed c4b6 ad37 c936 c084 4536
00000040: b26f c8b6 0420 c2b6 37f4 87b5 3939 8c36
00000050: 5de9 dc35 e117 b334 2075 0d35 7c95 8db1
00000060: e540 d030 6551 bb9d 0400 0000 0000 0000
00000070: 0000 0000 fe76 4e2d 53ef 5632 6941 a8a6
00000080: 73e4 ca32 401e ba33 33a7 2236 36b0 3a36
00000090: 354d 9036 3fdf a038 09c5 c938 d8c0 8438
000000a0: 695d a038 db20 0c38 055e 2db8 73d0 e6b7
000000b0: f59b d736 b0c5 1538 6be5 0338 f39b 9737
000000c0: d843 5b37 d3e3 91b6 7be3 0b37 a50f 3ab4
000000d0: 2b90 16b1 28b5 112e bd2b 8d26 d172 7995
000000e0: 0ec0 a02f 0ec0 a02f 6c5b 0430 35a0 61b5
000000f0: 1bf3 0a36 c2b9 b636 7687 9c36 3468 52b8
00000100: a298 1db8 d2a8 f837 2c9b 4c37 998e e538
00000110: c979 6238 a977 1e39 ef97 1138 5009 7536
00000120: ec4f 9338 0682 4ab8 42e6 db37 b8f4 9138
00000130: ada6 9038 75c8 8136 27a2 be36 0844 e137
00000140: bf59 fc36 d1b5 7630 f8fb a12b 18de 452b
00000150: 0ec0 a02f 33e6 6032 bdc3 d0b2 9fa1 bf36
00000160: b29a 9436 9765 9137 8790 0f38 33ab 88b4
00000170: 0f7a b637 6dfb ea37 82e5 b838 9e26 b737
00000180: 4352 1d39 6f94 c3b6 a435 2837 5f1b 5238
00000190: e651 a438 b53c b038 4d1a 2b38 7f55 3f38
000001a0: 8c45 adb7 4b1d 50b8 4943 92b7 9260 1038
000001b0: a3f4 c8b6 bc78 3334 24dd 8733 ded9 5b2a
000001c0: 8c4c 3f2f 299b 1932 4c0e 1736 adb0 c436
000001d0: 8031 72b6 6bb6 16b7 9dd9 1938 4155 54b8
000001e0: 1660 feb8 42ee 5137 76ad aab4 8b1f 9938
000001f0: 3295 7538 e38e d937 12a0 61b6 f508 1438
00000200: 7b63 1c38 1276 4b38 4580 1539 79cb 1738
00000210: 59df 9eb8 4f26 b5b8 5bab 3938 9ba5 0c37
00000220: d88c 1eb8 b637 17b8 f56c 8636 020c 17b4
00000230: 0ec0 a02f 8921 0136 201a 8e35 d241 14b8
00000240: 24a9 04b8 117f 1737 7332 9038 c4ef 7bb8
00000250: d310 ba37 9205 a438 db2e 0239 6d43 9138
00000260: d19d ef37 0dde 3eb8 2052 adb7 1cb3 2938
00000270: 5665 0039 e86d 9238 8e86 6c38 e3b4 8eb8
00000280: aac5 5bb8 1ad8 c8b8 64ad d337 2a6c 5235
00000290: 59d7 8ab7 2db8 37b8 5d5f 4b36 8abe cb33
000002a0: ebd4 cdb4 0aa5 5db5 1c26 0737 6f25 03b7
000002b0: e745 df37 1055 34b8 a819 8c37 62bb e6b7
000002c0: 0074 96b7 dc76 6db8 b15c e336 19d9 b2b7
000002d0: b859 deb8 8baf 54b9 f80b 06b9 1e16 5db8
000002e0: 3cfa f0b7 3155 49b7 f5dc 84b7 2b14 0237
000002f0: b5fb 21b8 0c91 8fb8 92cd 3438 07ac 93b7
00000300: 519b 92b7 1a72 f2b7 a151 98b7 ace1 49b6
00000310: 479f c231 75df 2bb6 fcc9 b2b7 486e 0ab6
00000320: 7018 8137 6a98 8a37 5e7b 1bb6 c2fc 05b8
00000330: 8b35 f6b8 3302 adb4 d608 feb7 faa1 a7b8
00000340: a88e e9b8 ea00 d8b8 5136 56b8 4a20 9bb8
00000350: 6e62 51b8 218b 5bb7 74b5 49b7 83ab b837
00000360: 9da7 98b8 0664 aeb8 5c3d cfb7 c9cc 8638
00000370: 6584 8fb7 6c40 13b8 865e 80b7 5647 e635
00000380: 8124 31b7 9255 12b8 c283 13b8 0abb 11b8
00000390: 0dba 17b7 3426 32b7 b1fb c4b8 692d deb8
000003a0: e48c 24b9 12d3 6eb8 444f c5b8 0fdd 9fb8
000003b0: 3d85 10b9 afcf 1cb8 dff1 d837 c161 25b8
000003c0: 009d 36b9 61b6 2ab9 0d68 4d34 5d28 05b8
000003d0: 1d39 9fb8 9817 f3b8 3fce 98b8 e6b0 b137
000003e0: 0772 19b8 112c 6db8 5e7f 68b8 2eb8 5936
000003f0: 5654 1136 8160 87b5 e132 2fb8 63e3 15b8

exp_avg_sq f4 [10, 6272]
0.0 0.0 3.968733e-20 3.5100663e-13 9.064934e-12 2.9897272e-11 2.6269783e-11 2.1046005e-10
4.3319684e-10 7.9677454e-10 1.7976205e-09 2.8383669e-09 3.9928074e-09 4.289962e-09 5.174205e-09 4.3177963e-09
3.8046846e-09 3.3287364e-09 2.7967906e-09 1.5550303e-09 7.6458223e-10 4.0554748e-10 2.5584054e-10 2.945449e-11
2.1153109e-11 7.2947323e-13 1.3378669e-13 0.0 0.0 5.2283104e-15 8.07193e-12 1.0870691e-10
8.662717e-10 1.1393988e-09 4.2013193e-09 1.5480959e-08 3.0814373e-08 6.9519245e-08 9.649015e-08 1.1805134e-07
1.3550374e-07 1.4532776e-07 1.4965819e-07 1.6284174e-07 1.6000037e-07 1.4827795e-07 9.543769e-08 5.5850244e-08
2.5422716e-08 9.6891775e-09 3.2394887e-09 1.1521817e-09 3.4949274e-10 9.61574e-11 6.4355795e-12 5.017796e-13
3.1155176e-12 5.1982915e-12 7.1650956e-11 5.3549326e-10 2.227541e-09 1.1444865e-08 3.895923e-08 8.761351e-08
1.6487118e-07 2.3866437e-07 3.1859318e-07 3.603549e-07 4.1322937e-07 4.0300836e-07 4.2962282e-07 4.2938328e-07
4.0250308e-07 3.5893652e-07 2.8908326e-07 2.1512493e-07 1.3281476e-07 6.865858e-08 2.7355629e-08 8.018321e-09
1.7911828e-09 3.6593661e-10 6.665543e-11 8.694849e-12 6.8958047e-12 3.057802e-11 2.4547578e-10 2.1448505e-09
1.1187903e-08 4.1055564e-08 9.4586206e-08 1.4905146e-07 2.0294377e-07 2.8935304e-07 3.3888074e-07 3.641707e-07
4.0114128e-07 3.9770842e-07 4.1504518e-07 3.9653332e-07 4.017829e-07 3.585394e-07 3.118678e-07 2.5778715e-07
1.9217387e-07 1.2070205e-07 6.270355e-08 2.5829596e-08 7.889638e-09 1.4377063e-09 4.5709284e-10 5.4220198e-11
3.3919933e-12 1.5067485e-10 1.1945182e-09 7.1890245e-09 2.0590953e-08 5.8718495e-08 1.364965e-07 1.8612565e-07
2.4820602e-07 3.1578563e-07 3.823501e-07 3.6780247e-07 3.6391475e-07 3.8217058e-07 3.834394e-07 3.8435118e-07
3.6064034e-07 3.5202828e-07 3.377563e-07 3.0493808e-07 2.4069223e-07 1.7350867e-07 1.0189879e-07 4.474009e-08
1.458845e-08 3.8142947e-09 1.016864e-09 1.6923152e-10 2.189401e-11 7.8727586e-10 3.76034e-09 9.242527e-09
2.7621823e-08 8.506324e-08 1.6452326e-07 2.1806025e-07 2.6376108e-07 3.4083018e-07 3.7775112e-07 3.7578198e-07
3.569127e-07 3.8456332e-07 3.845502e-07 3.7121916e-07 3.625427e-07 3.6691216e-07 3.5382556e-07 3.246621e-07
2.6668934e-07 2.0390178e-07 1.3897497e-07 6.441074e-08 2.3610479e-08 9.383636e-09 3.1494867e-09 1.0332653e-10
1.8256884e-10 1.9883217e-09 5.05875e-09 1.2255602e-08 3.999929e-08 1.08966795e-07 1.6962466e-07 2.2573406e-07
2.7482565e-07 3.452734e-07 3.8301613e-07 3.6289794e-07 3.8273063e-07 4.0517955e-07 3.9244114e-07 3.8499525e-07
3.6811394e-07 3.783025e-07 3.8164322e-07 3.3377714e-07 2.9047214e-07 2.3851865e-07 1.7527252e-07 8.4883034e-08
3.30288e-08 1.0619684e-08 5.016998e-09 7.219609e-10 3.364886e-10 1.5451649e-09 7.658054e-09 1.754547e-08
5.970298e-08 1.2524815e-07 1.9365115e-07 2.367684e-07 2.9146454e-07 3.5108482e-07 3.7641635e-07 3.8611978e-07
3.9650232e-07 3.958463e-07 4.085705e-07 3.886063e-07 3.9961867e-07 3.7617073e-07 3.7093446e-07 3.3772073e-07
2.856299e-07 2.4725932e-07 1.885121e-07 9.8231894e-08 4.1627207e-08 1.5417873e-08 4.44184e-09 7.1666845e-10
1.8845876e-10 2.7230074e-09 1.1011971e-08 2.6961976e-08 6.5052056e-08 1.2981434e-07 2.0441117e-07 2.3222978e-07
2.808228e-07 3.5674694e-07 4.100381e-07 3.92581e-07 3.9196235e-07 4.1402578e-07 3.9353176e-07 3.9249764e-07
3.9102585e-07 3.9693074e-07 3.6150354e-07 3.2669263e-07 2.7753785e-07 2.4076664e-07 1.7988862e-07 1.1643399e-07
5.2022134e-08 1.8068702e-08 7.335976e-09 1.1907992e-09 9.22516e-11 1.6119363e-09 1.2139261e-08 3.195713e-08
00000000: 0000 0000 0000 0000 0a6b 3b1f 6399 c52a
00000010: d578 1f2d 567d 032e 4b12 e72d 3d67 672f
00000020: 0927 ee2f 0604 5b30 2610 f730 140d 4331
00000030: 1b31 8931 e866 9331 cac8 b131 bd5b 9431
00000040: 5cba 8231 c0bf 6431 a931 4031 c4b8 d530
00000050: b12a 5230 bcf3 de2f 5ba6 8c2f cf8a 012e
00000060: 9110 ba2d 1654 4d2b 63a1 162a 0000 0000
00000070: 0000 0000 a75e bc27 be00 0e2d 8d0c ef2e
00000080: 741e 6e30 0899 9c30 325b 9031 fdfa 8432
00000090: c358 0433 9c4a 9533 0536 cf33 6983 fd33
000000a0: fc7e 1134 640b 1c34 bbb1 2034 99d9 2e34
000000b0: 91cc 2b34 5536 1f34 6df3 cc33 fedf 6f33
000000c0: 2561 da32 7475 2632 b09d 5e31 ca5a 9e30
000000d0: bb22 c02f ce73 d32e 8c6e e22c 083d 0d2b
000000e0: 2d3c 5b2c 0ce6 b62c e78f 9d2e fd31 1330
000000f0: 5113 1931 0c9f 4432 2054 2733 0926 bc33
00000100: 7207 3134 c821 8034 1d0b ab34 cd76 c134
00000110: d0d9 dd34 0c5d d834 e9a6 e634 fd85 e634
00000120: 9a17 d834 dcb3 c034 4d33 9b34 17fd 6634
00000130: d89b 0e34 7471 9333 aafb ea32 f3c0 0932
00000140: a42d f630 002d c92f ac93 922e 1ef6 182d
00000150: e39f f22c ca7b 062e a5f3 862f 9c64 1331
00000160: eb34 4032 1255 3033 511f cb33 f40a 2034
00000170: c2e8 5934 6158 9b34 6aef b534 3d83 c334
00000180: 705c d734 a184 d534 60d3 de34 20e3 d434
00000190: 9fb4 d734 487d c034 c96e a734 ff65 8a34
000001a0: 5a58 4e34 549a 0134 a4a7 8633 e2df dd32
000001b0: ff8a 0732 cb98 c530 194a fb2f 8476 6e2e
000001c0: b8b0 6e2c 33ab 252f 5f2c a430 5403 f731
000001d0: fcdf b032 ab31 7c33 df8f 1234 d4d9 4734
000001e0: 2d41 8534 3f89 a934 cc45 cd34 6376 c534
000001f0: 1060 c334 202d cd34 83db cd34 d358 ce34
00000200: 089e c134 66fe bc34 df54 b534 5fb6 a334
00000210: 7d38 8134 b34d 3a34 74d3 da33 4028 4033
00000220: aea0 7a32 e40e 8331 b9c1 8b30 7012 3a2f
00000230: ed94 c02d 9d67 5830 4d34 8131 10c9 1e32
00000240: 0845 ed32 03ac b633 cfa7 3034 f223 6a34
00000250: 0c9b 8d34 58fb b634 b8cd ca34 15bf c934
00000260: b59d bf34 fb75 ce34 2d74 ce34 f94b c734
00000270: 7da3 c234 06fc c434 6af5 bd34 384d ae34
00000280: 812d 8f34 18f0 5a34 2639 1534 2e52 8a33
00000290: fecf ca32 ab35 2132 5b6e 5831 aa37 e32e
000002a0: 8fbc 482f eda2 0831 3cd1 ad31 b58c 5232
000002b0: afcb 2b33 2101 ea33 1222 3634 4e61 7234
000002c0: c08b 9334 045e b934 56a1 cd34 50d4 c234
000002d0: 197a cd34 7487 d934 b3b0 d234 58b1 ce34
000002e0: 32a1 c534 8019 cb34 a5e4 cc34 fb31 b334
000002f0: 30f2 9b34 c10d 8034 8b32 3c34 f148 b633
00000300: 8ddb 0d33 dd71 3632 fb61 ac31 7b73 4630
00000310: 8ffc b82f a85d d430 7a90 0332 e6b6 9632
00000320: 0f36 8033 f37b 0634 6cee 4f34 673a 7e34
00000330: 957a 9c34 bb7c bc34 4516 ca34 e64b cf34
00000340: ddde d434 b484 d434 8059 db34 a5a1 d034
00000350: 2c8b d634 83f4 c934 d824 c734 fc4f b534
00000360: ad58 9934 10bf 8434 d069 4a34 8ef3 d233
00000370: 99c9 3233 4370 8432 d69e 9831 0fff 4430
00000380: 6d36 4f2f a71f 3b31 292f 3d32 039a e732
00000390: bfb2 8b33 1863 0b34 1d7c 5b34 d65a 7934
000003a0: fec3 9634 ed86 bf34 3523 dc34 ecc3 d234
000003b0: e56e d234 4547 de34 9846 d334 77b8 d234
000003c0: 2fee d134 bf19 d534 ab14 c234 4b64 af34
000003d0: 8300 9534 b742 8134 6827 4134 430a fa33
000003e0: f16e 5f33 7f35 9b32 ed0f fc31 86a9 a330
000003f0: 09dd ca2e f78a dd30 098d 5032 3c41 0933
