notebooks/pretrained-models/checkpoint_max_csnn.pth (torch, 506436 bytes, 10 tensors)

layer.0.weight f4 [8, 1, 3, 3]
-0.066779986 0.23831731 0.17877494 0.13208161 0.22144093 0.05288432 0.24693908 0.038119506
-0.49459538 0.13160121 0.23704632 0.16725978 0.057217542 0.12488685 0.101852156 -0.4722532
-0.35193628 -0.081713535 0.08773912 0.0660491 0.04828957 -0.24343583 -0.18910494 -0.11142195
-0.06201524 -0.21057239 -0.2581749 -0.31540108 -0.4046239 0.2059141 -0.3198978 -0.1625063
0.22327615 -0.0064948103 -0.061594367 0.15282063 -0.3775171 -0.1519075 0.06405411 0.07865222
0.071450986 0.30636165 0.14595762 -0.34678596 0.20629942 0.30353442 -0.00243121 -0.29118797
0.3504182 0.121203676 -0.5349992 0.18388745 0.21332034 -0.33815956 -0.1501038 -0.2219431
0.31421238 0.23835137 -0.26411125 0.14065923 0.23276852 -0.30657464 -0.035298236 0.03647587
-0.32869783 -0.08788576 -0.39353755 0.07195018 0.25736102 -0.2814466 0.13624898 0.02728647
00000000: f2c3 88bd 7409 743e c710 373e 6740 073e
00000010: 69c1 623e 3b9d 583d 99dd 7c3e 3323 1c3d
00000020: 9b3b fdbe 78c2 063e 45bc 723e 2646 2b3e
00000030: f15c 6a3d adc4 ff3d dd97 d03d 2ccb f1be
00000040: fe30 b4be 6d59 a7bd 91b0 b33d c044 873d
00000050: 49cb 453d 3e47 79be baa4 41be 3131 e4bd
00000060: b103 7ebd 4aa0 57be 802f 84be 407c a1be
00000070: dd2a cfbe 25db 523e a5c9 a3be 0d68 26be
00000080: 81a2 643e 6bd2 d4bb 604a 7cbd 037d 1c3e
00000090: ec49 c1be a48d 1bbe cd2e 833d 6a14 a13d
000000a0: e554 923d 6fdb 9c3e ea75 153e ee8d b1be
000000b0: 2840 533e dd68 9b3e ef54 1fbb 9716 95be
000000c0: 046a b33e a239 f83d b5f5 08bf fe4c 3c3e
000000d0: a670 5a3e 4023 adbe d0b4 19be 0d45 63be
000000e0: 72e0 a03e 6212 743e 9739 87be f908 103e
000000f0: df5a 6e3e 5af7 9cbe e294 10bd b967 153d
00000100: 154b a8be 73fd b3bd c17d c9be 9e5a 933d
00000110: d3c4 833e c519 90be da84 0b3e e087 df3c

layer.1.weight f4 [8]
0.8958518 1.4078705 1.5517831 1.4690183 1.241037 1.5408617 1.243874 1.3005234
00000000: 8b56 653f 1a35 b43f d4a0 c63f cb08 bc3f
00000010: 4dda 9e3f f53a c53f 4337 9f3f 8d77 a63f

layer.1.bias f4 [8]
-0.32364962 -0.2867675 -0.8764797 -0.45791996 -0.11676985 -0.15578374 -0.24203056 -0.49388707
00000000: 67b5 a5be 31d3 92be f960 60bf 7c74 eabe
00000010: 0825 efbd c685 1fbe dcd6 77be c4de fcbe

layer.1.running_mean f4 [8]
0.1609987 -0.025521487 -0.25777748 -0.2017774 0.0007346361 0.001146043 -0.015379846 -0.16442744
00000000: d8dc 243e 7012 d1bc 69fb 83be bc9e 4ebe
00000010: 9894 403a d236 963a c0fb 7bbc ab5f 28be

layer.1.running_var f4 [8]
0.084940135 0.06541839 0.105076656 0.122753814 0.052229233 0.12783499 0.048724238 0.0815937
00000000: 18f5 ad3d 14fa 853d 6e32 d73d 5a66 fb3d
00000010: 52ee 553d 2de7 023e 1193 473d 991a a73d

layer.4.weight f4 [10, 6272]
0.0012247527 0.0066883406 -0.007063252 0.011252581 -0.0053590895 0.007281757 -0.0016348074 0.01211017
0.006728229 -0.010765162 -0.0075232997 -0.0064233555 -0.014317176 0.005302913 -0.010061636 0.015261677
0.002602359 -0.0087940805 -0.018681256 -0.017084287 0.005769716 -0.0010208768 -0.016663097 -0.010558605
-0.0016459882 -0.0064258003 -0.004776003 0.0056029526 0.0038888762 0.011035065 -0.008534879 0.00066295755
-0.0077810073 -0.0021474177 -0.012863675 -0.023168825 -0.012964608 -0.01491826 -0.038932346 -0.02008844
0.0020991918 0.02794808 0.003970223 0.036616903 0.029056162 0.013694215 0.021604495 0.043454874
0.009775643 -0.002305906 -0.017748728 -0.009118442 0.01868817 0.0016841948 0.0022600177 0.0037201298
-0.003715819 0.0036357648 0.009879935 -0.0130971465 0.00018787097 -0.020596603 -0.055494335 -0.09868897
-0.08520503 -0.07726148 -0.021473084 -0.041162264 -0.013604711 0.021745466 -0.003227448 0.0013688814
0.0046278466 0.0052876696 -0.010217407 -0.007768792 0.002700442 0.022198359 -0.011397821 -0.0141143175
0.01150462 0.015743557 0.011085505 0.0041595767 8.369928e-05 -0.0036166017 -0.009541746 -0.008453782
0.011612718 -0.029670594 -0.058631554 -0.049139287 -0.045118686 -0.051006056 -0.02982849 0.0017635331
0.014522686 0.0011908318 -0.022157168 0.007975282 0.020301186 -0.011994626 -0.00820362 -0.03277301
-0.00364611 0.002395495 0.01556683 0.0030050713 0.017455813 0.017217858 0.003805817 0.0047710864
-0.0067483685 -0.00873158 -0.0038274725 -0.0065701758 -0.006093312 -0.03068804 -0.057872605 -0.03263136
0.009475947 0.0084542595 -0.023004234 -0.0037250342 0.028684236 0.037248056 -0.017110702 0.0217399
0.036840294 0.028332135 0.059996486 -0.007711179 0.011177091 0.024312958 0.024249107 0.0026763263
0.010056767 0.009017418 -0.0030732094 -0.007434895 0.0059090117 0.0070877057 -0.009679163 -0.0012491788
-0.01756976 -0.024290025 -0.0022448185 -0.005855992 0.02760466 -0.021280972 -0.049720757 -0.011611592
0.01711032 0.033525124 -0.010506014 0.0010961071 0.004551779 0.013446828 0.025303517 -0.017143609
0.033673722 0.024007292 0.04170454 0.033086646 -0.009119585 0.018807948 -0.009470185 0.0059818975
0.000776832 -0.013733886 -0.00057446567 0.013073375 0.006968441 -0.008078891 0.047587357 0.04230322
-0.016436394 -0.026640702 -0.033033397 -0.005219433 0.015051319 0.027646491 0.012287872 -0.023488963
0.01352364 0.02051381 -0.05957523 -0.048671763 0.014319942 0.0022896533 0.03347337 0.027024273
0.0054866234 0.00846199 -0.005994288 0.0038618098 0.00039920936 -0.0070822826 0.011232611 -0.009365739
0.0062290905 0.0057669417 0.021566434 0.035162024 -0.0334852 -0.039349657 -0.013466253 0.004045274
0.0074077114 -0.014352988 -0.021046855 -0.0024266602 -0.0022796046 -0.02524752 -0.017333776 -0.007134437
-0.0032358947 0.0009698147 0.022310512 0.033606596 0.018697416 -0.00828174 0.009407089 0.00031145045
-0.011182995 0.0042818594 -0.0020633067 -0.001378227 0.0059468853 0.022555806 0.027737642 -0.010940518
-0.022658998 -0.0382797 0.007199168 0.010836425 0.0016391835 -0.047104094 -0.02101678 -0.015724553
-0.018824382 -0.009131889 0.007825315 0.027508013 -0.007787164 -0.012940931 0.023184925 0.013199192
0.0068470547 -0.013884858 -0.006908982 -0.0011120898 -0.009578988 0.00043919872 -0.010009696 0.0057920576
00000000: e287 a03a de29 db3b da72 e7bb bf5c 383c
00000010: 4d9b afbb ce9b ee3b 0947 d6ba bc69 463c
00000020: 7a78 dc3b 5d60 30bc 0386 f6bb 037b d2bb
00000030: 9792 6abc 0fc4 ad3b 8fd9 24bc 1d0c 7a3c
00000040: 578c 2a3b 0c15 10bc 6f09 99bc 59f4 8bbc
00000050: e30f bd3b f1ce 85ba 0c81 88bc 00fe 2cbc
00000060: 33be d7ba 858f d2bb 0480 9cbb f998 b73b
00000070: 84dc 7e3b 6bcc 343c e1d5 0bbc 54ca 2d3a
00000080: d2f7 febb b1bb 0cbb 2ac2 52bc 8ccc bdbc
00000090: 8269 54bc b86b 74bc 8677 1fbd 8390 a4bc
000000a0: 9892 093b 5ff3 e43c a518 823b 9bfb 153d
000000b0: 3007 ee3c b35d 603c e9fb b03c bdfd 313d
000000c0: 052a 203c af1e 17bb c865 91bc 8565 15bc
000000d0: ef17 993c 33c0 dc3a ce1c 143b 6ccd 733b
000000e0: 1985 73bb 0346 6e3b 73df 213c 6a95 56bc
000000f0: 3bff 4439 35ba a8bc 074e 63bd 711d cabd
00000100: fa7f aebd 443b 9ebd 52e8 afbc c399 28bd
00000110: 4be6 5ebc 8c23 b23c 9883 53bb 0a6c b33a
00000120: 31a5 973b 3044 ad3b e966 27bc 5a91 febb
00000130: e6f9 303b 55d9 b53c edbd 3abc bd3f 67bc
00000140: e07d 3c3c a2f8 803c fa9f 353c 0f4d 883b
00000150: b587 af38 8204 6dbb fc54 1cbc bb81 0abc
00000160: 4543 3e3c bf0f f3bc a427 70bd 4746 49bd
00000170: 5fce 38bd baeb 50bd e15a f4bc 5a26 e73a
00000180: 8ff0 6d3c af15 9c3a f382 b5bc c2aa 023c
00000190: ac4e a63c 1c85 44bc 7a68 06bc fe3c 06bd
000001a0: 93f3 6ebb bdfd 1c3b 040c 7f3c bbf0 443b
000001b0: 7eff 8e3c 770c 8d3c 046b 793b c656 9c3b
000001c0: 6b21 ddbb e70e 0fbc 55d6 7abb a14a d7bb
000001d0: 68aa c7bb 7c65 fbbc d30b 6dbd 76a8 05bd
000001e0: 0141 1b3c bc83 0a3c 6073 bcbc b41f 74bb
000001f0: 34fb ea3c 6b91 183d be2b 8cbc e017 b23c
00000200: d9e5 163d cb18 e83c e0be 753d 0fae fcbb
00000210: 1e20 373c f82b c73c 10a6 c63c 4e65 2f3b
00000220: 23c5 243c cbbd 133c e667 49bb 6ba0 f3bb
00000230: 62a0 c13b fc3f e83b 5a95 1ebc 7cbb a3ba
00000240: 75ee 8fbc e0fb c6bc ce1d 13bb 9fe3 bfbb
00000250: 2b23 e23c 6f55 aebc fea7 4bbd 8c3e 3ebc
00000260: f12a 8c3c a451 093d 6b21 2cbc 40ab 8f3a
00000270: 1727 953b 1650 5c3c 5249 cf3c c170 8cbc
00000280: 75ed 093d f1aa c43c 61d2 2a3d dd85 073d
00000290: 506a 15bc 2013 9a3c d628 1bbc cb03 c43b
000002a0: 50a4 4b3a 1804 61bc bd97 16ba b631 563c
000002b0: 8557 e43b 535d 04bc f6ea 423d 2446 2d3d
000002c0: 9ea5 86bc 9a3d dabc 074e 07bd c707 abbb
000002d0: cf99 763c e57a e23c 1253 493c ed6b c0bc
000002e0: 4292 5d3c 940c a83c 2805 74bd 0b5c 47bd
000002f0: 319e 6a3c 020e 163b 5f1b 093d 0262 dd3c
00000300: 22c9 b33b 29a4 0a3c bb6b c4bb 6b16 7d3b
00000310: f94c d139 7e12 e8bb fc08 383c c272 19bc
00000320: 661d cc3b 9df8 bc3b 17ac b03c 0e06 103d
00000330: c727 09bd 1b2d 21bd 8fa1 5cbc 388e 843b
00000340: 63bc f23b cc28 6bbc 746a acbc 9a08 1fbb
00000350: 6b65 15bb e3d3 cebc 90ff 8dbc ffc7 e9bb
00000360: 4e11 54bb 2a3b 7e3a 89c4 b63c 12a7 093d
00000370: 532b 993c 23b0 07bc 3120 1a3c 2c4a a339
00000380: e138 37bc d74e 8c3b 8b38 07bb a0a5 b4ba
00000390: 17de c23b f4c6 b83c 0d3a e33c dc3f 33bc
000003a0: 5d9f b9bc 2dcb 1cbd 00e7 eb3b 438b 313c
000003b0: dfd9 d63a 39f0 40bd 622b acbc c7d0 80bc
000003c0: 9735 9abc eb9d 15bc c035 003c 7c58 e13c
000003d0: 772b ffbb 3306 54bc 50ee bd3c 6c41 583c
000003e0: 425d e03b 517d 63bc be64 e2bb 8bc3 91ba
000003f0: 30f1 1cbc 4144 e639 b5ff 23bc 4dcb bd3b

momentum_buffer f4 [8, 1, 3, 3]
0.0013224453 -0.0003785499 -0.00042828394 -0.0014223813 -0.0024101683 -0.0025349485 -0.0013741567 -0.00183897
-0.0030749608 0.008987956 0.0059984094 0.0024530701 0.009772963 0.0062100138 0.0015080045 0.0074650925
0.0024344898 0.0015226037 -0.00035036687 0.0010381648 0.0013132904 -0.0011797908 0.00044645127 0.0014322088
3.218447e-05 2.4539444e-05 0.0005335186 0.0009740663 0.0019016564 0.0012289906 -0.0012850267 0.00028196577
0.001421638 -0.0042796205 -0.0036793048 -0.0007596299 -0.005543056 -0.0032121171 -0.0029113132 -0.00535124
-0.0036095832 -0.0035117012 -0.004569442 -0.002623512 -0.0042545754 -0.0051050717 -0.0066336766 -0.0054109385
-0.005824348 -0.005588203 -0.005495234 -0.007744909 -0.007724885 -0.008290095 -0.013707722 -0.013700749
-0.014895184 -0.011256037 -0.010100714 -0.011155045 -0.008712101 -0.009444566 -0.008406067 -0.00033796148
0.0011228854 0.001540346 -0.00053730275 -0.00026932024 0.00060911087 -0.0016341343 -0.0019397401 -0.0010657376
00000000: e755 ad3a 1c78 c6b9 4c8b e0b9 326f baba
00000010: eaf3 1dbb 6121 26bb 0c1d b4ba 9809 f1ba
00000020: 4885 49bb 3842 133c 4e8e c43b b0c3 203b
00000030: c71e 203c 5f7d cb3b 3ca8 c53a bc9d f43b
00000040: f68b 1f3b 1a92 c73a 72b1 b7b9 0813 883a
00000050: b722 ac3a 36a3 9aba ad11 ea39 f4b8 bb3a
00000060: d0fd 0638 0eda cd37 d4db 0b3a 7c58 7f3a
00000070: 0041 f93a 1516 a13a 576e a8ba ced4 9339
00000080: 4156 ba3a 0f3c 8cbb 7e20 71bb e621 47ba
00000090: 86a2 b5bb 6282 52bb bbcb 3ebb 7459 afbb
000000a0: c28e 6cbb 9224 66bb 42bb 95bb 3aef 2bbb
000000b0: f769 8bbb 7248 a7bb 505f d9bb 3e4e b1bb
000000c0: 2cda bebb 3f1d b7bb 5d11 b4bb 01c9 fdbb
000000d0: 0821 fdbb 2ed3 07bc 5a96 60bc 1b79 60bc
000000e0: ee0a 74bc 3e6b 38bc 777d 25bc a6c3 36bc
000000f0: 33bd 0ebc 62bd 1abc 9ab9 09bc 6c30 b1b9
00000100: c82d 933a 6fe5 c93a c7d9 0cba 8d33 8db9
00000110: bdac 1f3a 7330 d6ba e13e feba 38b0 8bba

momentum_buffer f4 [8]
-0.0008680983 -0.0023504905 -0.0043406435 -0.00024391763 -0.00014473972 -0.0010142222 -0.0012869623 -0.00094303116
00000000: 1791 63ba b00a 1abb f53b 8ebb 24c4 7fb9
00000010: 46c5 17b9 a6ef 84ba 4aaf a8ba c035 77ba

momentum_buffer f4 [8]
-1.0461954e-05 -0.0054184934 -0.004519313 0.0006797319 0.0014510582 -0.0032417325 -0.0023868275 0.00015341135
00000000: c085 2fb7 9e8d b1bb bf16 94bb 0930 323a
00000010: 6f31 be3a 3f73 54bb 526c 1cbb 0cdd 2039

momentum_buffer f4 [10, 6272]
0.0 0.0 0.0 3.1881632e-15 -1.1053224e-05 -2.0506891e-07 -1.3072495e-06 7.0667807e-06
1.8598722e-06 2.9303155e-05 -8.255616e-06 2.917523e-05 -0.0002094563 -5.8980877e-05 1.6343305e-05 1.274464e-06
-8.0054284e-05 0.00014847625 -3.532091e-05 -0.00035822138 9.46072e-05 2.9692459e-05 4.5606386e-05 -4.918166e-06
-7.4294555e-08 -1.9937759e-06 -2.0866105e-10 -4.6469617e-21 0.0 6e-45 1.2191383e-12 2.9629093e-06
-3.970399e-06 -1.7226218e-06 4.257992e-05 0.00019367402 0.0002788327 -6.0436243e-05 -0.0003857333 -0.000113735805
-3.3910837e-06 0.0006213704 0.00036415015 -0.00024834432 -0.000780173 -0.00014232674 -0.00076634914 -0.0004209926
-5.698437e-05 0.0002832061 0.0001643654 0.000107378 -2.0476375e-05 -4.428451e-05 2.2535353e-06 -3.059085e-10
6e-45 3.1148297e-06 2.8841205e-05 -7.859362e-07 5.2183685e-05 0.00012886747 0.00029090513 0.000521819
0.0004406309 -0.00028187822 -0.0013634698 -8.627324e-05 0.00057371246 0.0002859187 -9.880674e-06 -0.0007865913
-3.8217695e-05 8.1880775e-05 -0.0004942836 -0.00078461005 0.00027379027 0.00039674705 0.00016033379 0.00021175954
1.9743005e-05 -2.1595426e-05 2.518001e-05 3.6674674e-06 1.6033747e-26 2.9310055e-05 5.9422335e-05 4.9143637e-05
6.960562e-05 0.00010963986 0.0004017826 0.00032168246 0.0009454118 0.00058385154 -0.00021326072 -0.00028253536
-0.00049111136 -6.366611e-05 -0.00036728603 0.00036220028 0.0005178453 0.0007899686 -0.00015969359 4.541323e-05
0.00061469985 0.00030526228 0.0005907434 0.0006059223 0.0001644335 6.7124405e-05 3.139153e-05 8.383411e-06
6.484249e-06 7.655714e-05 1.24068865e-05 6.432042e-05 0.00016487078 0.00021059456 0.0003818461 0.00064065505
0.00097499735 0.0007574054 0.0006166798 -0.000273722 5.9752972e-05 0.00076413265 0.00026244373 0.0005742757
0.0004465162 0.0005268617 -0.00012691812 0.00013792042 0.0008184486 0.00012904042 0.00074216013 0.0006436119
-8.495683e-05 9.217425e-05 6.071995e-05 3.6598152e-07 -6e-45 2.0264451e-05 6.4189326e-06 -2.161706e-06
0.00015229474 3.377736e-05 0.00030788433 0.0011305506 0.000919081 0.00061614404 0.00054341136 -3.0060532e-05
-0.00013838802 0.00043690955 0.00070711283 0.000110176916 0.00054889556 0.00014247283 0.00036184414 -0.00037532154
0.00078608945 0.0004659738 0.0006589748 0.00045300636 0.00028060912 0.00014656199 6.4111264e-05 -1.8720893e-05
-6e-45 4.557043e-05 -4.7375757e-05 -3.9597133e-05 0.00014975898 7.592693e-05 0.0005708281 0.0008861693
0.00034291256 4.20715e-05 -0.00036239685 0.0004125887 -2.4073088e-05 0.0005041105 -0.00022872142 0.00019284923
0.0006524641 -0.0003599375 0.00017535621 -0.00022363118 0.00038502848 0.00070432253 0.0010963954 0.00044025175
0.0001816916 0.00014485265 -5.14543e-06 -6.63928e-05 3.5666268e-05 2.866092e-05 -0.00010640297 5.9608195e-05
0.00011846816 0.0003365833 0.00078383414 0.0005695838 0.00042617606 0.00022982527 -0.00030963807 -8.9769404e-05
3.866182e-06 0.00021747506 -0.0006391341 2.282759e-05 0.00018175549 -0.00016356185 0.0006177688 0.00023112496
-3.959472e-05 0.00079888105 0.0010299878 0.000617172 0.00040445637 -1.9767183e-05 1.4841947e-05 -8.4308325e-05
5.612929e-06 -6.949817e-05 -0.00010623755 0.0001947462 0.00029940347 0.0004142587 0.0006924811 0.00088386674
0.00046684174 -0.00010677712 0.00039526395 -0.00029887527 -7.299101e-05 0.00053585647 -0.00034905874 6.7690125e-05
0.00015743478 -0.00030418925 0.00049705233 -0.00012762548 -0.00045466877 0.00080441684 0.0008984103 0.00050909613
0.0005837311 0.00012885848 -1.4110668e-05 -0.00017157196 3.4476184e-08 9.905912e-06 -5.6582678e-05 0.00029144398
00000000: 0000 0000 0000 0000 0000 0000 3bbb 6527
00000010: 3c71 39b7 ea30 5cb4 c074 afb5 2f1f ed36
00000020: b9a0 f935 0cd0 f537 9a81 0ab7 54bd f437
00000030: 7fa1 5bb9 3c62 77b8 fb18 8937 400e ab35
00000040: d1e2 a7b8 4ab0 1b39 8a25 14b8 a9cf bbb9
00000050: db67 c638 1214 f937 7c49 3f38 b906 a5b6
00000060: dd8b 9fb3 cfcc 05b6 dd6c 65af a88e af9d
00000070: 0000 0000 0400 0000 1694 ab2b 65d6 4636
00000080: 7839 85b6 d634 e7b5 d797 3238 f914 4b39
00000090: 4b30 9239 ec7c 7db8 3f3c cab9 7285 eeb8
000000a0: 6092 63b6 76e3 223a 68eb be39 3634 82b9
000000b0: 8684 4cba 8b3d 15b9 d2e4 48ba acb8 dcb9
000000c0: 8002 6fb8 487b 9439 8059 2c39 2030 e138
000000d0: aec4 abb7 21be 39b8 713b 1736 cb2c a8af
000000e0: 0400 0000 5e08 5136 04f0 f137 20f9 52b5
000000f0: cedf 5a38 9920 0739 a084 9839 aeca 083a
00000100: 7a04 e739 0ec9 93b9 74b6 b2ba 98ed b4b8
00000110: 3165 163a 5ce7 9539 2cc5 25b7 4033 4eba
00000120: f04b 20b8 68b7 ab38 d092 01ba 4aae 4dba
00000130: 828b 8f39 7d02 d039 461f 2839 c50b 5e39
00000140: c89d a537 d327 b5b7 a939 d337 9c1e 7636
00000150: 61ca 9e14 ddde f537 3f3c 7938 941f 4e38
00000160: 3cf9 9138 74ee e538 59a6 d239 7da7 a839
00000170: 83d5 773a 9d0d 193a bd9e 5fb9 4121 94b9
00000180: edbd 00ba 7c84 85b8 4c90 c0b9 b3e5 bd39
00000190: 03c0 073a e515 4f3a 6c73 27b9 167a 3e38
000001a0: cf23 213a 9c0b a039 1edc 1a3a c2d6 1e3a
000001b0: c86b 2c39 24c5 8c38 66aa 0338 7aa6 0c37
000001c0: 4693 d936 4d8d a038 2c27 5037 c3e3 8638
000001d0: 2ae1 2c39 0cd3 5c39 8432 c839 a2f1 273a
000001e0: f796 7f3a 9e8c 463a aea8 213a 5882 8fb9
000001f0: 449f 7a38 1350 483a 9a98 8939 fd8a 163a
00000200: 641a ea39 171d 0a3a 5315 05b9 bb9e 1039
00000210: 288d 563a 064f 0739 868d 423a 10b8 283a
00000220: da2a b2b8 ac4d c138 8dad 7e38 1e7c c434
00000230: 0400 0080 94fd a937 3662 d736 d411 11b6
00000240: 4fb1 1f39 2aac 0d38 896b a139 fc2e 943a
00000250: 7bee 703a ba84 213a b873 0e3a 802a fcb7
00000260: 401c 11b9 0211 e539 8a5d 393a c80e e738
00000270: c2e3 0f3a c264 1539 e6b5 bd39 cec6 c4b9
00000280: 9211 4e3a f24d f439 0dbf 2c3a 7c81 ed39
00000290: b81e 9339 6fae 1939 7973 8638 d00a 9db7
000002a0: 0400 0080 e022 3f38 55b5 46b8 1915 26b8
000002b0: 9f08 1d39 f63a 9f38 a0a3 153a d14d 683a
000002c0: f2c8 b339 ee75 3038 1500 beb9 b850 d839
000002d0: 90f0 c9b7 4826 043a f0d4 6fb9 9237 4a39
000002e0: 200a 2b3a feb5 bcb9 d3df 3739 8a7e 6ab9
000002f0: a6dd c939 49a2 383a edb4 8f3a 97d1 e639
00000300: 7884 3e39 96e3 1739 e8a6 acb6 5d3c 8bb8
00000310: 5d98 1538 db6c f037 a924 dfb8 d003 7a38
00000320: 1c72 f838 7277 b039 387a 4d3a 1f50 153a
00000330: 6270 df39 40fd 7039 eb56 a2b9 9542 bcb8
00000340: 40ba 8136 040a 6439 908b 27ba e07d bf37
00000350: 9e95 3e39 cd81 2bb9 c3f1 213a 225a 7239
00000360: 8212 26b8 006c 513a a800 873a b6c9 213a
00000370: 370d d439 b4d1 a5b7 ad01 7937 b0ce b0b8
00000380: b156 bc36 8cbf 91b8 dacb deb8 c934 4c39
00000390: 41f9 9c39 dd30 d939 9f87 353a 4bb3 673a
000003a0: 70c2 f439 88ed dfb8 6e3b cf39 5cb2 9cb9
000003b0: c012 99b8 b878 0c3a df01 b7b9 dcf4 8d38
000003c0: 1415 2539 977b 9fb9 9e4c 023a 34d3 05b9
000003d0: 9c60 eeb9 80df 523a 4b83 6b3a dd74 053a
000003e0: 8805 193a 2f1e 0739 dcbc 6cb7 ffe7 33b9
000003f0: f712 1433 9131 2637 3053 6db8 f3cc 9839
