notebooks/pretrained-models/checkpoint_csnn_mps.pth (torch, 759784 bytes, 14 tensors)

conv.weight f4 [8, 1, 3, 3]
00000000: f256 9cbe 1a12 173e bb46 543e 52cc 013e
00000010: e5a5 4fbc cd9a 17be e434 0bbe 3e97 803e
00000020: 1649 34bd 1328 303d d78f eebe 9f21 8abe
00000030: 3121 163d fa42 4cbe fc55 5dbe 7d87 9a3e
00000040: 4ffd 313d ce13 833d a5af 0f3d d869 8dbb
00000050: 2a09 d63e 620c 75be 9a36 633c d231 513e
00000060: b724 91be a921 1f3d 3224 85be eb7a 9fbe
00000070: ec62 713e 3e54 763e 3eab d33d 2cf3 96be
00000080: d1de 4ebe 99da ad3e 9d78 ec3d 0a83 c5be
00000090: efbc 68be 41eb 4ebd 0430 663e 1258 483e
000000a0: dbe7 453c 2ddf 623e 7b0b 9f3e 4231 2f3e
000000b0: fceb af3e 18c7 ef3b 2ab1 0f3c 8b6e bf3b
000000c0: 4d76 44be 4e26 96be 93e1 87be 85c4 91be
000000d0: 694d 92be 11a2 8bbe dac2 85be 66a0 7ebe
000000e0: a1a2 f53d ad80 91be d508 913d a595 ba3e
000000f0: 666e 253e 7fc7 5bbe f5a2 033e ecb9 c0bc
00000100: c82b b9be ac2e 883e c9e3 28be 4bfd bebe
00000110: 2049 d93d 9df9 42be c7ef aabe d60d 9e3e
-0.30535084 0.14752999 0.20730107 0.12675598 -0.01267383 -0.14805146 -0.13594395 0.2511539
-0.044015013 0.043006968 -0.46594116 -0.26978776 0.036652748 -0.19947425 -0.21614832 0.30181494
0.043454465 0.06400262 0.035079617 -0.004315596 0.41803867 -0.23930505 0.0138679985 0.20429161
-0.28348324 0.03885046 -0.26004177 -0.31148466 0.23572892 0.24055573 0.10335396 -0.294824
-0.20202185 0.3395584 0.11546443 -0.38576537 -0.22728322 -0.050517324 0.22479254 0.19564846
0.012079204 0.22155447 0.31063446 0.17108634 0.3435973 0.007317435 0.008770267 0.005842035
-0.19185753 -0.293261 -0.26539287 -0.28470245 -0.28574684 -0.27272084 -0.26125222 -0.24865875
0.119939096 -0.28418484 0.07081763 0.36442295 0.16155395 -0.2146282 0.12855132 -0.023526154
-0.36166215 0.26598108 -0.16493143 -0.37302622 0.106096506 -0.19040532 -0.3338606 0.3086993

bn.weight f4 [8]
00000000: 2682 693f 0ad6 6e3f e1ce 313f c2bd 8a3f
00000010: c2d1 433f d553 873f 61bc 633f 126d 663f
0.91214216 0.9329535 0.694563 1.083916 0.7649194 1.0572459 0.8895932 0.9001018

bn.bias f4 [8]
00000000: e5d2 3fbe 0750 2bbe 3b0f 8cbe 19d9 99be
00000010: 0251 37be bce2 b3be 7947 95be 51b1 82be
-0.18732794 -0.16729747 -0.2735537 -0.30048445 -0.17901996 -0.35133922 -0.29156092 -0.25525907

bn.running_mean f4 [8]
00000000: d3b0 d03c cafa 45be 4210 babc 6191 42bd
00000010: f8a4 b33e 7a30 ebbe 4c63 3fbd 1499 65be
0.025474941 -0.1933395 -0.02271283 -0.047501925 0.350868 -0.45935422 -0.046725556 -0.22421676

bn.running_var f4 [8]
00000000: 926e d93c 5d15 e43d 8cd0 5e3d 837f 7a3d
00000010: a360 483e eb7a 9b3e 1df8 713d b253 123e
0.026541982 0.11136887 0.054398105 0.06115676 0.19568114 0.30367216 0.05907451 0.1428974

linear.weight f4 [10, 6272]
00000000: b2ec 423d 327b 7c3c 5432 40bd dea6 0abe
00000010: 5430 07be 8cae 4ebd e469 f7bc 1228 033e
00000020: 5d10 613d f2e3 693d fe1c d93d 9cde 0e3d
00000030: 4854 3a3d de00 86bc 754a 60bd c69f 08bd
00000040: 3041 54bd 7970 61bc 85e6 8b3d 0bf2 1b3d
00000050: ecae 163e a5d4 f53d 6c5e dbbb 913c 00bd
00000060: b0dc 12be 2444 fdbc 0f6f 27be 00d6 3a3d
00000070: ea0e c6bc 17d2 ebbc ce06 d3bd cd41 a2bc
00000080: fd37 83bd b562 56bd bce9 2a3d 6fa8 033d
00000090: 408d 2a3d c4e5 943c 802c 2f3d 388d a93c
000000a0: 69be 25bd 6fcb 02bd 3fb2 acbc 5468 03bd
000000b0: 7bdb 353d dc10 873b cbd9 c23c 43cc 45bb
000000c0: b9a9 7c3c 2658 a23c be9a c33d 9415 883d
000000d0: 95dd 753d 0db2 0cbd eaa7 68bd 5451 0bbd
000000e0: a5a8 20bd 6038 4dbd fd93 5bbd a197 b1bd
000000f0: c586 0e39 806d be3c b1ca 68bd feae 5fbd
00000100: eb9d 66bc d1e9 abbc 22fd 283d e4c2 463c
00000110: 3840 96bb ccc8 9c3c 5f32 e9bb 09c7 c6bc
00000120: 25cc dbbc 51d0 f9bb 0b65 b43c 013d feb9
00000130: d603 d63c 8029 593d a9ff c73d c509 f03d
00000140: 5b86 bf3d 68f9 e83d f041 12bd 0306 9cbd
00000150: 8d38 8dbd c67d 66bd 16fd 91bd 7971 033d
00000160: 95ae d73c 09cb 10bc 4362 e239 88b7 cfbc
00000170: 7bf4 91bc 8744 193c 6b6c 6a3b 4847 e83a
00000180: 0e30 a53c 9f53 39bb 3bc4 ef3c 7356 403c
00000190: d210 10bc 7940 2ebb 1ad5 7dbc a65f d23c
000001a0: 2116 e53c 515c dfbb a32b a23d cf49 133e
000001b0: 636a 1d3e b680 4e3c 262e 85bd 5743 ba3c
000001c0: b0db 82bd 77a7 7cbd cd4b 00bc 656a 403d
000001d0: af08 ca3d 7220 9f3c 11b7 b93b 243b 10bd
000001e0: 2b1e 1dbd 9966 b73b 0846 01bc 5f4e 0cbd
000001f0: 89a0 f43b db98 85bd 2e18 c5bc e646 e4bc
00000200: bf2a 3bbb 9794 1bbc 5b1f fcbc 5ab9 ce3a
00000210: fd87 dabc 2f9e 9c3b fc46 e63c da5d f63d
00000220: 8bee ad3d a30b 093e fcc1 b6bc 1979 15bc
00000230: 374c 3bbd d2d8 873d ee20 6b3d a797 7c3d
00000240: 381e a63d fef8 d23c 678c a83c af86 00bc
00000250: 5a40 5a3c 91fb bdbb 5e27 4bbc 5547 08bd
00000260: 1d6b 993a e39b 09bd 3027 bebc 97c0 b2bc
00000270: 7871 993c 57a3 4c3b 5e4f aabc 591c 82bb
00000280: d3c1 77bc 1776 abbb 84c9 a03c ec24 173e
00000290: f7db db3d 1ab7 b83d 68c9 4dbd 3806 39bd
000002a0: 1fd8 8bbd 29cc 7b3d 405d cb3d 29ba ba3d
000002b0: 1ca7 843d d25f ae3c ede4 243d f97a c1bc
000002c0: 5e69 923c 945a e7bc ecf4 f73b b0f1 f03b
000002d0: 57eb 0bbc 6598 d9bb 440d 24bc d472 6cba
000002e0: 2752 d63c 5ac3 023c 69bb e5bc 148b c93c
000002f0: 5cd4 42bc 5795 073c 116c b43c cd3c 7b3d
00000300: a18c 2a3e 8aae b43d 5c87 b13c c222 793d
00000310: 0144 5fbc d837 803d ab35 113e e124 ea3c
00000320: bbf0 a33d 7259 713d 158a 8f3d 91c1 813a
00000330: 3729 c33c 25fa 5f3d eedb 4abc 7d6b 23bc
00000340: 30df 3f3c 2743 b13b acce 1cbc 2ca6 e6bb
00000350: 2a8d 563c bed9 81bc 4bca 19bc 0a12 163d
00000360: 13ff 55ba c24b 7f3d e4d8 013d b5e5 a63d
00000370: d398 233e 2f49 983d e824 913b 6a74 a9bd
00000380: 3577 7abc 3dcb 4a3d 55b9 c83d cbc9 a63d
00000390: a2c7 9a3d 7b80 aa3d 2d6f 4bbb 9822 3fbc
000003a0: dbc8 a7bb f90e f73b 58a5 af3c feef 8e3b
000003b0: 849f a53c 1fb3 99bc 69ef fbbc 276f c83c
000003c0: b5e3 5a3c b6f3 0abd 0cdc bc3c 5adc 623d
000003d0: 7fc8 5c3d 906c 883d 92d9 463d a3f3 523d
000003e0: 07bd fb3d d447 d83d 881e 26bd db3e 21be
000003f0: 7430 24bd ded1 4f3d f4b6 2d3d 5d7d 213d
0.04758901 0.015410231 -0.046922997 -0.13540217 -0.1320203 -0.05045943 -0.03020186 0.12808254
0.054947246 0.05710215 0.10601233 0.034880266 0.045490533 -0.016357835 -0.054758508 -0.033355497
-0.05181998 -0.013759726 0.068310775 0.038072627 0.14715165 0.12003449 -0.0066946056 -0.03130776
-0.14341998 -0.030916281 -0.16350959 0.045614243 -0.024177033 -0.028786702 -0.10304032 -0.019806767
-0.06407163 -0.052340228 0.041726813 0.032143053 0.041638613 0.018175967 0.042767048 0.020697221
-0.040464792 -0.03193229 -0.021081088 -0.032081917 0.044398766 0.004121883 0.023785492 -0.0030181564
0.015421324 0.019817423 0.09550999 0.06644741 0.06002577 -0.03434949 -0.05680076 -0.034013107
-0.039223332 -0.05010259 -0.05360793 -0.08671499 0.00013592381 0.023245573 -0.056833927 -0.054610245
-0.0140757365 -0.020985516 0.04125703 0.0121314265 -0.004585292 0.019138716 -0.0071166004 -0.02426483
-0.026830742 -0.00762371 0.022020837 -0.00048492107 0.026124876 0.053018093 0.0976556 0.117206134
0.09351798 0.113756955 -0.035707414 -0.07618334 -0.06895552 -0.05627229 -0.071283504 0.032090638
0.026328364 -0.00883747 0.0004317929 -0.02535607 -0.017816773 0.009354717 0.0035770189 0.0017721439
0.020164516 -0.0028278602 0.029268375 0.011739361 -0.008793073 -0.0026588722 -0.015492702 0.025680374
0.027964653 -0.006816425 0.07918479 0.14383624 0.15372615 0.012603929 -0.06502943 0.022737188
-0.06389558 -0.061683144 -0.007830572 0.046976466 0.098649375 0.01942465 0.005667575 -0.03521265
-0.03835885 0.0055969474 -0.007890232 -0.034254428 0.0074654263 -0.065232955 -0.024059381 -0.027865838
-0.0028559414 -0.009495876 -0.03077667 0.0015771792 -0.026676172 0.004779599 0.02811002 0.120296195
0.08492764 0.13383345 -0.022309296 -0.00912311 -0.04572698 0.06633152 0.05740445 0.061668064
0.081112325 0.025753494 0.020574762 -0.007844611 0.013321007 -0.0057978113 -0.012399523 -0.033271153
0.0011704896 -0.03359593 -0.023212045 -0.02182035 0.018730864 0.0031225288 -0.020789798 -0.0039706645
-0.015121895 -0.0052325833 0.01962734 0.14760178 0.10735314 0.09019299 -0.050240904 -0.045171946
-0.06828331 0.061474 0.099298954 0.091175385 0.06477186 0.021285925 0.040257383 -0.023618208
0.017872509 -0.028241433 0.0075670388 0.00735303 -0.008539996 -0.0066404813 -0.010012928 -0.0009019796
0.02616222 0.007981146 -0.028043466 0.02460245 -0.011891451 0.0082753515 0.022024186 0.06133728
0.16655208 0.08822353 0.02167099 0.060824163 -0.013627053 0.06260651 0.14180629 0.028582038
0.080049 0.058923192 0.07008759 0.0009899606 0.023823364 0.054681916 -0.012381537 -0.009974358
0.011710927 0.0054096165 -0.009570759 -0.007038852 0.01309518 -0.015850898 -0.009386609 0.036638297
-0.0008163314 0.062328108 0.031700984 0.08149282 0.15976267 0.07435834 0.0044294484 -0.08274157
-0.01528721 0.04951023 0.09800974 0.08143958 0.07557608 0.08325287 -0.0031041608 -0.011665963
-0.0051203794 0.0075396267 0.021441147 0.0043621054 0.020217665 -0.01876217 -0.030753808 0.024467064
0.013359954 -0.033923827 0.023054145 0.055385925 0.053902145 0.06661332 0.048547335 0.05150188
0.122919135 0.10560575 -0.04055646 -0.15746634 -0.04008527 0.050737254 0.042410806 0.039426196

exp_avg f4 [8, 1, 3, 3]
00000000: 8533 f2ba 0deb daba 8c2d 0abb d27f dcba
00000010: be1d c9ba 6539 b3ba 2838 dbba 2db5 3bba
00000020: 4a5d bbba d3ea 983a 138a 0d3a 0223 8e3a
00000030: 0316 ad3a 94ed 6e39 7000 c13a ed9f 003b
00000040: f459 de3a f139 123b f6fb 143a bdc7 1a3a
00000050: 760b 353a c4d0 1c3a ea17 6a3a 4bdc 7c3a
00000060: bb31 5b3a d967 803a 49c5 2e3a 9efb d8ba
00000070: 0f02 5dba ea54 60ba c044 8eba 3e5b 36ba
00000080: ed9a 5cba 6039 efba 0800 88ba 8453 78ba
00000090: 2c5a c0b9 84fd 11ba 81dc f7b8 613d a6b9
000000a0: 279c 4aba 1648 6cb9 e0ae 50b9 7484 9c37
000000b0: 43d2 9039 ec42 e439 b68b 223a b151 2439
000000c0: 306b 3338 7311 9639 505f 48b8 6c2a 80b9
000000d0: fea6 02b9 a3b6 0739 a83f 5f39 b524 013a
000000e0: be84 bb39 4e07 1a39 12cb 8239 dffa 123a
000000f0: b12a a1b9 1b59 91b8 69a1 a5b8 6988 803a
00000100: 9819 db39 9a23 5d3a b081 e839 b9a3 6739
00000110: 1895 df39 4436 f339 e81f 8739 a418 473a
-0.0018478489 -0.0016702131 -0.0021084277 -0.0016822761 -0.0015343947 -0.0013673721 -0.001672511 -0.0007160481
-0.001429477 0.0011666663 0.0005399298 0.0010844173 0.0013205413 0.00022785953 0.0014724862 0.0019626573
0.0016964064 0.0022312368 0.0005683297 0.0005904397 0.000690631 0.0005982036 0.0008929955 0.00096458633
0.00083615974 0.0009796574 0.0006666971 -0.001655448 -0.0008430788 -0.0008557575 -0.0010854229 -0.0006956345
-0.000841542 -0.0018251352 -0.0010375986 -0.0009472894 -0.00036688277 -0.0005569088 -0.0001181895 -0.00031707718
-0.0007728957 -0.00022533568 -0.00019901572 1.8658327e-05 0.00027622478 0.0004353741 0.0006200628 0.00015670691
4.277675e-05 0.0002862323 -4.7772483e-05 -0.0002444567 -0.00012459976 0.00012942641 0.00021290651 0.0004926429
0.0003576632 0.00014689306 0.0002494683 0.0005606841 -0.0003074012 -6.930736e-05 -7.897878e-05 0.0009806278
0.00041790004 0.0008435786 0.00044347113 0.00022090868 0.00042644958 0.00046389003 0.0002577298 0.00075949193

exp_avg_sq f4 [8, 1, 3, 3]
00000000: 1f85 9737 e06f 7c37 c4aa 5e37 e93a 9237
00000010: d826 7f37 7e4d 6237 4ec4 9c37 7d2d 9537
00000020: 100b 6f37 7890 5c37 d838 1436 d0dd d936
00000030: ee10 8537 bcd2 1d37 4e25 3837 1d15 0038
00000040: 4155 ac37 a8bb b537 ba50 7c36 7f51 8936
00000050: 6e2e 8f36 3301 5f36 c2af 8d36 a223 8f36
00000060: 9f92 8736 45e0 9236 cfd9 8136 b270 2738
00000070: e37b 4b38 80a9 3d38 023b 4338 7bfb 1f38
00000080: 6fc1 1938 bf96 7738 f4b7 4c38 47c6 2138
00000090: 4327 a035 298e 7935 aa81 4d35 8d55 8b35
000000a0: 92df 4735 d162 1e35 94bd 6635 ad8b 2a35
000000b0: d1c2 0335 7fee 7336 960d 6136 0c5c 7436
000000c0: 6b9a 8035 1a50 3f35 40a8 ce35 e8ee 6335
000000d0: 3305 4135 8e42 b635 d0ee d436 c1af f436
000000e0: ea0f 1737 569e d236 b7a8 1437 9cf3 2537
000000f0: 61b2 1737 84ca 1237 3c11 2537 a2bd a436
00000100: 5219 2936 b7c8 0537 2ba1 3736 dce7 b535
00000110: edd5 a736 d471 2e36 3d2c e135 711e c136
1.8062592e-05 1.5046418e-05 1.3271991e-05 1.7431988e-05 1.5208228e-05 1.3488692e-05 1.868806e-05 1.7783366e-05
1.4248086e-05 1.3146659e-05 2.2086806e-06 6.4929263e-06 1.5862719e-05 9.406995e-06 1.097594e-05 3.053724e-05
2.0543697e-05 2.1664266e-05 3.7597915e-06 4.0924056e-06 4.2671372e-06 3.3230287e-06 4.2225884e-06 4.2658803e-06
4.0403825e-06 4.3772475e-06 3.869856e-06 3.992086e-05 4.851435e-05 4.521897e-05 4.654658e-05 3.8142764e-05
3.665819e-05 5.9029782e-05 4.880871e-05 3.857005e-05 1.1932356e-06 9.29666e-07 7.655714e-07 1.0381206e-06
7.4458615e-07 5.9003384e-07 8.595755e-07 6.353319e-07 4.90848e-07 3.6348645e-06 3.353552e-06 3.6412412e-06
9.581685e-07 7.126961e-07 1.5397163e-06 8.4911744e-07 7.190567e-07 1.3579427e-06 6.345894e-06 7.292227e-06
9.004007e-06 6.2769204e-06 8.860769e-06 9.891486e-06 9.041833e-06 8.74943e-06 9.838779e-06 4.909657e-06
2.51977e-06 7.97415e-06 2.7362937e-06 1.3553031e-06 5.001892e-06 2.5994277e-06 1.6776681e-06 5.755392e-06

exp_avg f4 [8]
00000000: 72f2 5138 50c2 c7ba be78 9b3a 35db 07b9
00000010: ebc1 85b9 a6c5 0339 9b8d 773a c3a4 2239
5.0055278e-05 -0.0015240405 0.0011861545 -0.00012956264 -0.00025512217 0.00012566763 0.0009443403 0.00015510902

exp_avg_sq f4 [8]
00000000: f5f6 8835 f874 9c37 0fee 4f36 03ce ca35
00000010: ca97 ec35 de10 ba37 95e4 e435 639b b736
1.0204664e-06 1.8651117e-05 3.0983972e-06 1.511013e-06 1.7627547e-06 2.2180782e-05 1.705385e-06 5.4719144e-06

exp_avg f4 [8]
00000000: ae44 fd39 c025 0dbb 8165 c23a 3f36 a039
00000010: a463 8539 4689 a139 c038 cb3a ab35 f539
0.0004830709 -0.0021537393 0.0014831276 0.00030557995 0.00025441975 0.0003081059 0.0015504584 0.00046770027

exp_avg_sq f4 [8]
00000000: 10e2 6636 e427 6238 cbb2 9636 9b08 ab37
00000010: 87c1 6d36 7231 3438 0c36 1437 7fc4 8037
3.4404256e-06 5.391975e-05 4.4911626e-06 2.0388796e-05 3.54284e-06 4.2961394e-05 8.834071e-06 1.535029e-05

exp_avg f4 [10, 6272]
00000000: 0000 0000 e582 b41f eaf1 b036 81cc 5430
00000010: fe12 8736 db60 e436 e748 d7b7 a03e 1fb3
00000020: f838 92b4 a117 08b7 183c fbb7 ea59 5738
00000030: 5e10 2c37 88a3 70b8 34d5 1338 59fe d0b8
00000040: 5026 8938 080c 81b6 169f 8538 7080 31b8
00000050: 22e7 0038 3eae 2338 7dc8 7d37 7b7d 37b7
00000060: cb88 4b36 84b3 5a37 82cf feae 7e1c d526
00000070: 0000 0000 f447 f930 cc99 3636 af32 5337
00000080: 6251 db37 fc1b bfb7 7c29 9337 34f6 1db6
00000090: b898 d636 26a1 2237 63fa 9db7 37ff 0e37
000000a0: a672 6a37 f8c0 b0b6 a4f1 4f38 8ac2 5738
000000b0: 4cc9 1938 52f6 f3b7 51dc 4cb8 6e0e 2238
000000c0: 06a8 0e38 6bd2 b937 b238 3238 f285 ea36
000000d0: 4a90 28b7 3e5a c0b5 87db be33 adf6 1c36
000000e0: 0e4d a436 385e 7f36 def7 ed36 9710 4e37
000000f0: 165e 28b5 dc87 47b7 4809 dcb6 d6fc 3838
00000100: 2c97 d7b6 1059 fa36 3803 f5b7 7aca ba37
00000110: c084 8cb7 5838 ad35 1a0b 1138 fab8 1738
00000120: d4dc 0cb8 be10 4a37 e011 8a38 ad0b 0f38
00000130: aad0 1738 7bd8 0ab8 ad52 01b8 8d2a ff37
00000140: 143d 9337 7a79 3937 c679 7535 507c 1b36
00000150: 5a11 ecaf e6da 7f35 b7a6 04b7 b2d4 48b7
00000160: 1c4d 88b6 3d64 7e37 ca94 7038 41bb d237
00000170: b7e3 ae38 e169 00b9 3ee4 acb7 90db e337
00000180: 57de d938 0e43 8438 3fb2 53b7 05a3 0c38
00000190: 982e a937 3c45 8db8 24e8 fc37 35bb 63b7
000001a0: 4e0b 8e38 00ea df33 6dbc 79b8 272b 9137
000001b0: f815 1d38 fb07 0736 6d1e aab6 1706 ffb0
000001c0: 7b80 1d36 1ad8 7bb6 5f7c 1238 28a4 a537
000001d0: d80b 82b8 637c 0638 99f9 5a38 a648 1938
000001e0: ef1f 6f38 c49b beb8 000d 4335 b011 4538
000001f0: 389a 8eb6 6ef9 cfb7 288c 7538 3860 8538
00000200: 6888 a5b8 8072 3a38 6349 00b7 9016 94b8
00000210: eff7 0e38 5d38 58b8 dd98 6c38 20f2 a835
00000220: f09f 94b7 b985 8b36 ed8a 1638 06d2 dcb5
00000230: 3129 a8b6 38bd 5936 5add 01b7 ec37 a2b5
00000240: d9a6 9037 0d7f cb38 e4e4 06b6 3643 a1b8
00000250: 6865 0838 5837 0f37 b82a 9838 2db7 ca37
00000260: c742 88b7 48df 21b8 7c6b c137 848b 47b8
00000270: 0aef a9b7 90b9 52b5 c797 a9b7 d815 2f37
00000280: 0069 a238 e688 2d38 a6e5 7336 1a8c 0438
00000290: d53f 1037 9086 5837 8a0b 2236 2cf8 2c36
000002a0: c935 31b6 6655 6737 1b5a 96b7 93e4 dcb7
000002b0: f869 cbb7 00ab 52b6 8510 1f38 e781 5fb8
000002c0: e843 b9b7 ca29 f5b8 906e 6b38 d88f 8a37
000002d0: b574 0038 9cf8 92b7 6a93 9337 882b b2b6
000002e0: 50e4 31b7 20f3 0636 d924 a537 3aeb e0b7
000002f0: f56b 0a38 5a1a 0238 6cd6 1238 783c 92b5
00000300: 9621 7936 9058 d8b5 74b3 b137 4e1d 0536
00000310: 3185 0c35 9e91 2137 aca3 1fb7 3c98 fdb7
00000320: b000 4638 5885 f138 eb1e a5b7 015a 9fb7
00000330: e208 7c38 9245 a738 6f18 95b8 925c 3038
00000340: cb49 2b38 9095 c835 4c37 4f38 badb 8f37
00000350: 8170 4f38 c218 cfb7 ac34 2838 4a0b 8cb6
00000360: 986c 04b6 0509 7536 00bd 4ab5 4452 52b7
00000370: 4ee6 3237 278d 0138 0bbd 4db7 5e1d b6b5
00000380: a1ee 7136 d83d cf35 aeb6 1fb8 4075 c0b7
00000390: 69b3 9f38 82a4 d5b7 d78e 9538 9208 c837
000003a0: 9a63 ae37 f6dd 0bb8 d20a 6d38 dc19 a438
000003b0: 0877 aa37 8ec2 07b7 75d0 3938 5e2e 8b36
000003c0: ceb9 e537 3f1f 2f38 d59c 1038 14d8 7937
000003d0: fe51 77b8 61d7 0138 b484 f838 8038 5ab5
000003e0: 4609 3d37 1ca1 a0b7 1a40 7037 40a0 28b6
000003f0: b6dc 5336 90bd d6b4 be55 18b8 77dc 64b6
0.0 7.644951e-20 5.2733712e-06 7.741577e-10 4.0255245e-06 6.806205e-06 -2.5663945e-05 -3.707703e-08
-2.723607e-07 -8.111733e-06 -2.9949515e-05 5.1343734e-05 1.025581e-05 -5.737276e-05 3.5246092e-05 -9.965589e-05
6.539805e-05 -3.8459e-06 6.371566e-05 -4.2319705e-05 3.0732837e-05 3.9024504e-05 1.5126655e-05 -1.0936866e-05
3.0328981e-06 1.3035609e-05 -1.15874435e-10 1.4787567e-15 0.0 1.8137585e-09 2.7209635e-06 1.2588381e-05
2.6144731e-05 -2.2782006e-05 1.7543083e-05 -2.3538132e-06 6.395476e-06 9.693473e-06 -1.8832454e-05 8.523281e-06
1.3974181e-05 -5.2676733e-06 4.957769e-05 5.1441173e-05 3.6665515e-05 -2.908256e-05 -4.8842576e-05 3.863725e-05
3.4011922e-05 2.2151702e-05 4.249131e-05 6.9893367e-06 -1.0047175e-05 -1.4331379e-06 8.887496e-08 2.3389396e-06
4.896551e-06 3.8052804e-06 7.092006e-06 1.2282419e-05 -6.272179e-07 -1.18929565e-05 -6.5575914e-06 4.410449e-05
-6.425098e-06 7.460949e-06 -2.9207775e-05 2.2267213e-05 -1.6751117e-05 1.2905903e-06 3.4581033e-05 3.617348e-05
-3.3584263e-05 1.2044036e-05 6.583682e-05 3.410473e-05 3.619554e-05 -3.3103377e-05 -3.0832995e-05 3.0418183e-05
1.7552207e-05 1.1055143e-05 9.1446816e-07 2.316916e-06 -4.294048e-10 9.531344e-07 -7.906629e-06 -1.1970451e-05
-4.0620926e-06 1.5162918e-05 5.735903e-05 2.5121148e-05 8.339382e-05 -0.00012246474 -2.0610281e-05 2.716275e-05
0.0001038878 6.3067404e-05 -1.2618081e-05 3.3530425e-05 2.0168067e-05 -6.7363e-05 3.014884e-05 -1.3573842e-05
6.773193e-05 1.0426811e-07 -5.954171e-05 1.7305441e-05 3.7452177e-05 2.0121213e-06 -5.069937e-06 -1.8555423e-09
2.3469609e-06 -3.7527702e-06 3.4924942e-05 1.9745974e-05 -6.201089e-05 3.2063934e-05 5.2207706e-05 3.65457e-05
5.701178e-05 -9.0889196e-05 7.266208e-07 4.6984933e-05 -4.249883e-06 -2.4792473e-05 5.8543083e-05 6.359856e-05
-7.893221e-05 4.4452492e-05 -7.646481e-06 -7.0613925e-05 3.4086344e-05 -5.1550905e-05 5.640915e-05 1.2587443e-06
-1.7717452e-05 4.15809e-06 3.589217e-05 -1.6452402e-06 -5.0115855e-06 3.244566e-06 -7.740537e-06 -1.2086216e-06
1.7243832e-05 9.703459e-05 -2.0100788e-06 -7.689597e-05 3.251937e-05 8.53635e-06 7.255882e-05 2.4165574e-05
-1.6243559e-05 -3.8593338e-05 2.3057444e-05 -4.757523e-05 -2.0257681e-05 -7.8501125e-07 -2.0217047e-05 1.0435899e-05
7.74432e-05 4.137391e-05 3.6343495e-06 3.1601732e-05 8.597931e-06 1.29059335e-05 2.4146598e-06 2.5774452e-06
-2.6406362e-06 1.3788556e-05 -1.7923352e-05 -2.6332482e-05 -2.4248831e-05 -3.1391974e-06 3.792394e-05 -5.3288324e-05
-2.208534e-05 -0.00011690294 5.6131335e-05 1.6517864e-05 3.062627e-05 -1.7520324e-05 1.759241e-05 -5.309881e-06
-1.060318e-05 2.0109073e-06 1.9686691e-05 -2.6812417e-05 3.3002307e-05 3.1018957e-05 3.500881e-05 -1.0895446e-06
3.712344e-06 -1.6119029e-06 2.1183609e-05 1.9835602e-06 5.2347883e-07 9.630252e-06 -9.515246e-06 -3.023084e-05
4.720752e-05 0.00011516613 -1.968393e-05 -1.8996188e-05 6.0089755e-05 7.976139e-05 -7.109425e-05 4.2047883e-05
4.0838302e-05 1.494469e-06 4.9404145e-05 1.7149247e-05 4.9457423e-05 -2.4687852e-05 4.0103376e-05 -4.1736394e-06
-1.9732743e-06 3.6513095e-06 -7.5525895e-07 -1.2536129e-05 1.0663249e-05 3.0887455e-05 -1.2262967e-05 -1.3568604e-06
3.6050699e-06 1.5440701e-06 -3.8078688e-05 -2.2942782e-05 7.6151286e-05 -2.5468184e-05 7.13148e-05 2.3845849e-05
2.0788797e-05 -3.33469e-05 5.651528e-05 7.824946e-05 2.0321007e-05 -8.091925e-06 4.4301578e-05 4.1479207e-06
2.738545e-05 4.175235e-05 3.4478337e-05 1.4891866e-05 -5.896575e-05 3.0956584e-05 0.000118502794 -8.1293547e-07
1.1267437e-05 -1.9148509e-05 1.432004e-05 -2.5127229e-06 3.156992e-06 -3.999853e-07 -3.6319478e-05 -3.4102975e-06

exp_avg_sq f4 [10, 6272]
00000000: 4b76 8b2c 9ae7 992d bbfd 2e30 7591 912f
00000010: cb98 3230 86ec 6731 a61e 0832 4718 ad32
00000020: 84b4 c632 b929 cf32 09fe fa32 a639 3d33
00000030: bbd2 2033 82fc 2d33 c6c9 af32 9147 0633
00000040: 919a 2033 dad0 1433 b18c 4333 4a90 1d33
00000050: 7271 f932 021a 7932 d8d0 aa31 30a0 eb30
00000060: e8c6 0c30 77e6 c52f 2e53 892f 0ca5 1a2b
00000070: db21 c22f 5fc8 1e2e 2c78 702f c346 8b30
00000080: e557 3031 1658 db31 b187 8732 dead d732
00000090: 9497 3633 cfc8 9833 f87a 8833 a9e1 6f33
000000a0: baea 6e33 9d69 6a33 0661 7133 4f22 8c33
000000b0: 42ca 9b33 658e a233 a40f 8333 0335 4a33
000000c0: 6b9f 1733 3fae 0633 488f ac32 2753 f431
000000d0: ef19 ef30 5851 2030 9a68 fc2e a810 752e
000000e0: 5ffa a02f 6e1f 0530 bbaf 1730 ba37 e230
000000f0: afd2 b031 1c3a b632 4ce3 2a33 2cb4 8433
00000100: 3a5b ab33 6554 ba33 a5a9 c733 9db8 df33
00000110: 1910 a033 15d3 8333 d9cd 9833 c003 b733
00000120: cc4a 9433 eeab a833 1683 8233 b4cd 8133
00000130: 1fdc 2f33 7bfe 0833 eec8 b832 fb1a 5f32
00000140: 02c9 8831 d0fe af30 1cb0 9f2f 4ec9 252e
00000150: f9fe 032f 6b43 0430 64ce ad30 f51b 9431
00000160: cad5 a532 a5b6 1b33 0613 7e33 1a8b 8733
00000170: ad53 bb33 0cd6 d733 d578 be33 ac74 b033
00000180: 9010 9f33 5317 a933 7bfc ae33 64c0 a033
00000190: 727a 9c33 5ede a033 c95e 9c33 6018 9233
000001a0: c350 5e33 1d63 3733 7272 db32 f4b8 9432
000001b0: b222 c631 e312 1931 1618 0f30 2183 4a2f
000001c0: 96ab 3e2f ae59 1130 2f14 3131 b87b e131
000001d0: cd47 f932 ca50 6d33 8ade 8c33 f22d a633
000001e0: 5e7a c233 f6f6 da33 f217 bb33 9cef a133
000001f0: a72a bb33 9641 a633 352e a833 1401 b133
00000200: 5499 a733 51bd af33 7f4e a433 ce9f 9f33
00000210: f74e 6c33 ed20 4c33 e9ca 1633 8990 9932
00000220: 7ce3 0232 11da 4531 3293 a130 83bf ce2f
00000230: 9e0c 1330 f654 a730 314b 3631 d30b 3c32
00000240: 627d 1f33 876d 8533 72fe 9333 7cc5 a733
00000250: d16a d033 40cf cf33 1dc7 b133 1d1c b133
00000260: 6f4f a533 e976 b233 8bb2 a833 4845 9f33
00000270: f796 a833 48ce b433 db02 a933 99df 9633
00000280: 3424 8c33 45e6 3433 0646 0433 669f f332
00000290: c2d1 0132 819c 8131 a27c 8030 6ada 922f
000002a0: df43 fd2f 4a97 bb30 b694 9f31 b111 7e32
000002b0: 35d9 3f33 4a9c 8e33 055b 8833 770b 9c33
000002c0: c209 cd33 7312 cf33 6bdc b633 ce59 b333
000002d0: c0f3 af33 3370 a833 799a 9c33 1a9d b733
000002e0: 7456 b233 094c b333 0d34 9e33 3b31 9933
000002f0: 7c15 8c33 ff04 5833 cc69 1c33 5c42 c232
00000300: f4be 2632 49c9 bf31 6cfc 0131 d4fc 1d30
00000310: 1fab 5031 bcc4 3331 fbae d331 b3f6 bb32
00000320: c6e3 5233 015d 6f33 79eb 7633 7663 9b33
00000330: 5dd6 c633 93a4 c933 32ae b133 4bac aa33
00000340: 151b 9d33 1a11 a633 3a44 b033 c43b ab33
00000350: 98df 9533 8a81 a233 b8af bd33 2e6f 9b33
00000360: 7f32 8233 6b9b 3833 4691 2a33 f7c9 0233
00000370: 6352 9632 3abb a131 c866 9831 1dc1 d12f
00000380: 03dd e02f 4351 5031 346d 2332 045a 0d33
00000390: 1e7d 6f33 118d 5d33 2ddf 5433 c868 a333
000003a0: 7199 c133 9656 dd33 4f68 b633 1b84 a233
000003b0: 21f0 9e33 fab7 b033 cb2f a133 f317 9f33
000003c0: 1029 c133 31ee 9633 17a2 9e33 faca 9c33
000003d0: d86d 9133 2271 5c33 4c33 2f33 485d c532
000003e0: 265d 8232 78fb 0f32 e48e 1931 2af4 4531
000003f0: db1d 7b30 74da 6731 942d 5032 1361 e532
3.9637508e-12 1.7496938e-11 6.3661404e-10 2.64787e-10 6.4973155e-10 3.3749372e-09 7.9232105e-09 2.015089e-08
2.3132323e-08 2.4116945e-08 2.9219352e-08 4.4057423e-08 3.744456e-08 4.0509356e-08 2.0464437e-08 3.1264396e-08
3.739348e-08 3.4648885e-08 4.5529934e-08 3.668564e-08 2.9039004e-08 1.4499621e-08 4.971394e-09 1.7144028e-09
5.1214366e-10 3.5997846e-10 2.4979258e-10 5.494084e-13 3.531245e-10 3.6103006e-11 2.1870566e-10 1.0133693e-09
2.5661333e-09 6.383753e-09 1.5777774e-08 2.510836e-08 4.2513037e-08 7.1145784e-08 6.3553614e-08 5.585176e-08
5.5627176e-08 5.4578425e-08 5.6200427e-08 6.525499e-08 7.2545404e-08 7.569614e-08 6.103008e-08 4.7080004e-08
3.5302417e-08 3.1357782e-08 2.0088592e-08 7.110788e-09 1.739691e-09 5.832326e-10 1.1478214e-10 5.5721344e-11
2.928173e-10 4.842978e-10 5.518321e-10 1.6459503e-09 5.146226e-09 2.1214014e-08 3.9787935e-08 6.179502e-08
7.979402e-08 8.676651e-08 9.297518e-08 1.0417828e-07 7.453509e-08 6.1385585e-08 7.115495e-08 8.522284e-08
6.9053925e-08 7.8543835e-08 6.077441e-08 6.044448e-08 4.094556e-08 3.1896416e-08 2.1511791e-08 1.2986443e-08
3.980973e-09 1.2805348e-09 2.9047065e-10 3.769545e-11 1.2004965e-10 4.8117127e-10 1.2646066e-09 4.3105453e-09
1.9305748e-08 3.6254864e-08 5.9156285e-08 6.31173e-08 8.7230866e-08 1.00506526e-07 8.869544e-08 8.216861e-08
7.407027e-08 7.8739184e-08 8.148432e-08 7.485576e-08 7.286589e-08 7.491029e-08 7.2815574e-08 6.8030886e-08
5.1761855e-08 4.269815e-08 2.5547e-08 1.7313575e-08 5.766503e-09 2.2275166e-09 5.2057325e-10 1.841838e-10
1.7341359e-10 5.2878135e-10 2.5768363e-09 6.562427e-09 2.9020066e-08 5.525434e-08 6.5597376e-08 7.738335e-08
9.0560874e-08 1.0196338e-07 8.712222e-08 7.5407314e-08 8.7156245e-08 7.7419074e-08 7.8315146e-08 8.242401e-08
7.804434e-08 8.183509e-08 7.6511235e-08 7.433083e-08 5.501985e-08 4.7527397e-08 3.5109142e-08 1.7877271e-08
7.61872e-09 2.879123e-09 1.1756127e-09 3.760726e-10 5.349622e-10 1.2174997e-09 2.6527227e-09 1.0945729e-08
3.7134107e-08 6.213218e-08 6.891504e-08 7.812466e-08 9.7051846e-08 9.676887e-08 8.278423e-08 8.2473186e-08
7.69786e-08 8.3104005e-08 7.8555864e-08 7.416617e-08 7.85057e-08 8.4194255e-08 7.870195e-08 7.0255915e-08
6.525843e-08 4.2118945e-08 3.079733e-08 2.836141e-08 7.556482e-09 3.7721866e-09 9.348649e-10 2.6712438e-10
4.6068657e-10 1.364904e-09 4.6444155e-09 1.4788768e-08 4.46682e-08 6.640819e-08 6.34955e-08 7.2664015e-08
9.547831e-08 9.6425445e-08 8.515129e-08 8.3516724e-08 8.1934104e-08 7.8435185e-08 7.2924145e-08 8.550178e-08
8.304497e-08 8.349168e-08 7.366916e-08 7.133573e-08 6.523166e-08 5.0295963e-08 3.6417802e-08 2.261475e-08
9.705889e-09 5.581715e-09 1.8915456e-09 5.747556e-10 3.0365255e-09 2.6159759e-09 6.160801e-09 2.1881851e-08
4.9101594e-08 5.573111e-08 5.74905e-08 7.235842e-08 9.259086e-08 9.389728e-08 8.273891e-08 7.947582e-08
7.3158084e-08 7.733088e-08 8.208049e-08 7.973679e-08 6.979025e-08 7.567276e-08 8.8329614e-08 7.2379734e-08
6.062782e-08 4.298219e-08 3.9713335e-08 3.045167e-08 1.7499763e-08 4.707002e-09 4.435467e-09 3.8154094e-10
4.09024e-10 3.0314176e-09 9.512679e-09 3.291099e-08 5.5760317e-08 5.158387e-08 4.9563074e-08 7.6093386e-08
9.015174e-08 1.0306864e-07 8.494009e-08 7.567743e-08 7.4011275e-08 8.229104e-08 7.50584e-08 7.408371e-08
8.994732e-08 7.028246e-08 7.386932e-08 7.301237e-08 6.772069e-08 5.1325635e-08 4.0792017e-08 2.2976238e-08
1.517635e-08 8.380873e-09 2.2345654e-09 2.8806064e-09 9.1355695e-10 3.37391e-09 1.2117557e-08 2.6703253e-08
