notebooks/pretrained-models/csnn_fashion_mnist_model.pt (torch, 256748 bytes, 6 tensors)

weight f4 [8, 1, 3, 3]
00000000: 894a 8a3e db1b a13d d4c6 8bbc a3d9 bd3d
00000010: 8de7 9abe 293a f3bd 4a74 d03d 685e 38bd
00000020: 8f4d 2fbe d05d 12be d0bf 06be d12f ab3d
00000030: a3c4 25be 1fdb 11be 7d63 383e 14a1 25be
00000040: ad06 27be 5851 a33e 0a3f 70be 71f4 40be
00000050: 291e e8bc 2400 80be 3de3 7fbe 9895 81be
00000060: 9c41 94bd 29c7 80be c236 64be a947 353e
00000070: 770c 15be 02c7 96be 82ad e83d f806 e63d
00000080: d0fb e23d 96ba 063e 8849 823e 4515 b6be
00000090: b57b 103e ac2f 7bbc 80ca 94be 704f 41bc
000000a0: e869 06be dfa6 91be 7abe 3cbe 1292 53be
000000b0: 7ba4 5dbe 862f 883e 3b09 193e cd54 323c
000000c0: 5fb3 d4bd 803f c1bd c0d5 e6bd bfe3 8abe
000000d0: cb8d 9abe 1af6 7dbe b5b0 923d 761e 92be
000000e0: 2d03 c4be 833a 91be d5ed ab3d abaa 053e
000000f0: 0b45 c63d 4a60 863d 0a2f 853e 7e8b 6b3e
00000100: 0426 7d3e f71a dbbd 67da 133c cf18 923e
00000110: 48ca 85be 7a19 01be ac3c b5be 1288 813e
0.2700999 0.07866641 -0.017062582 0.092700265 -0.30254784 -0.118763275 0.101784304 -0.045011908
-0.1711943 -0.14293599 -0.13159108 0.0835873 -0.16188292 -0.14243744 0.18006702 -0.16174728
-0.1631114 0.31897998 -0.23461547 -0.18843247 -0.028334694 -0.25000107 -0.24989028 -0.25309443
-0.072390765 -0.25151947 -0.22286513 0.17703117 -0.14555536 -0.29448706 0.11361219 0.11231798
0.11083186 0.13157114 0.25446725 -0.35563102 0.1410969 -0.01533119 -0.29060745 -0.0117987245
-0.13126338 -0.28447625 -0.18432036 -0.2066119 -0.21644776 0.26598758 0.14944927 0.010884476
-0.10385775 -0.0943594 -0.11271238 -0.2712688 -0.30186304 -0.24800912 0.071626104 -0.28538865
-0.38283673 -0.28364953 0.08394972 0.13053386 0.09681138 0.065613344 0.2601245 0.23002431
0.24721533 -0.106985025 0.009024239 0.28534552 -0.2613089 -0.12607375 -0.3539785 0.25299126

weight f4 [8]
00000000: 0c98 553f 7aa2 643f fe48 6f3f 8b6d 923f
00000010: ac76 483f e7b2 663f ef8c 733f fd06 353f
0.8343513 0.8931042 0.9347075 1.143968 0.7830608 0.90116733 0.9513692 0.7071379

bias f4 [8]
00000000: 8d6c 93be f9c2 15be 89a0 e1be e384 98bd
00000010: da09 b7be ae9a b3be fa44 bebe 90bc 5dbe
-0.28793755 -0.14625157 -0.4406779 -0.07447221 -0.35749704 -0.3507895 -0.37162 -0.21653962

running_mean f4 [8]
00000000: 3866 fbbc c713 aebd 55cb edbe 8bc6 e73c
00000010: e9ef a2be 8328 40be 6237 83bd a14b 3e3d
-0.03068839 -0.08499866 -0.46444193 0.028292915 -0.31823662 -0.18765454 -0.06407048 0.046458844

running_var f4 [8]
00000000: 82ba fc3c 942c 483d 8f9f ac3e bb4d 363d
00000010: 80cd 343e 3dff bd3d 95b7 4a3d 9954 3c3d
0.030850653 0.048870638 0.33715484 0.044507723 0.17656517 0.092771985 0.049491484 0.045979116

weight f4 [10, 6272]
00000000: baeb 253c cb3e f2bb ad01 2aba 56cf d0ba
00000010: ac03 463d 2fd2 93bc 1d2d 5a3d 4777 243d
00000020: 5869 1e3e 423a 153e 3770 fa3d eea2 b93d
00000030: 9f69 3a3d c5f0 5e3c f4c7 02bc 3ffa 03be
00000040: 058d c1bd 63ee 9fbb c603 bbbc 0d40 7ebd
00000050: 45ad 423c 30e4 233e 71e6 d23d 94d4 cc3c
00000060: 656a febb 612a ba3c 2c3b e9bc bc2a 303c
00000070: ab2f 63bb 8811 853b 0c58 273a 4dbc abbc
00000080: 2cc6 573d 169b 3cbd 1a37 11bc 8a2b 20bd
00000090: ba98 3239 fca7 0e3d 841d 63bc d4a3 0ebd
000000a0: ab95 f0bb 2f75 68bd d48a acbd 0d02 bdbd
000000b0: f1d2 9fbd 1177 283d 99d8 e83c 0a22 e6bb
000000c0: 0a78 e0bc 88b3 0e3d f613 69bb 58ab 54bc
000000d0: 3789 2dbc 000f a93d 04b5 75bc eda0 b93b
000000e0: f88b 503b d716 7b3a 8c46 ed3b 49b9 453c
000000f0: 5f3d f6bc de8d 21bd b313 4d3d 5795 b3bc
00000100: 7c07 813d 89d4 fe3c 945e 223d 70f6 343b
00000110: d14e 3fba f525 453d 1355 4b3d 786e b73c
00000120: 004d 1c3d 41ba 063d 5aa4 483d 5351 bf3d
00000130: d583 b83d f593 9c3d f813 463c 37a1 07bd
00000140: 8622 4fbd 22e9 9c3d 1649 003d 7b46 d33c
00000150: 163b b7bb 0951 0d3c a3cd 4dbc e9f6 f0bc
00000160: df02 27bd c4f3 2f3b 14f9 9e3d fb5b 3a3d
00000170: 5373 513c 1744 6f3a 83d9 db3c 4754 46bd
00000180: b244 a0bd 9d42 ff39 f27f 0c3d 7964 f1bb
00000190: a75b 773c 7fba cbbc e402 87bc 1301 8a3c
000001a0: 68dc 43bc 1a9e d73a 163a cd3d 16e5 493d
000001b0: 5cdf 583c fddf d73d 15d9 683c 3061 833c
000001c0: 0f0c 27bc 07b1 a9bc b6c1 c63c 507d fcbc
000001d0: c008 46bd 592e 0c3c b4a9 5b3d cd7f 3a3c
000001e0: 40c4 0e3b 4557 c2bb e1d6 6ebc a8bd debc
000001f0: 7a33 15bd 756e e13c cd8e 3bbc 0970 e3bc
00000200: bc68 ed3c 5d7a 233d eba6 033b 6820 abbc
00000210: 135c eebc ac41 88bc ac75 4e3c 667e a93d
00000220: 8830 253d 0f50 083e 6533 7c3d 77bd c4bc
00000230: 200c 0b3a f0bc e8bc 77ee 8a3c 7309 e8bc
00000240: c6bd 923d 0d1c 653c 6c8c 0fbb 7b0b 3ebd
00000250: c044 033c 6f1f 593d c2b2 8abc 56fe d6bc
00000260: 4d41 44bc 51e5 e73b 7ede f6bc ed7b 0cbd
00000270: ff2f 1c3d 2bea 8cbb 8322 bbba 6df5 c9bc
00000280: da26 54bc 7026 72bd 7683 4bbc 271e 813d
00000290: 3e3a b63d 3f67 833d df5b 993d 5d4a a2bd
000002a0: 3dd6 62bb c08f c53c 945c 073b ce2a bebc
000002b0: c2e3 aa3b dc96 a63d e8fb 04b9 9be1 453d
000002c0: 197b 863c 4b93 3ebc 835c 263c 11ad 73bc
000002d0: 2506 2f3c eb4c 973a 681d 1c3b 18b4 f1bb
000002e0: f325 c13c ff15 1b3d 1fee 90bc 40db 71bb
000002f0: e16f a03c 0745 7abd f59e 33bd e336 fc3c
00000300: 5bf2 f83c ed80 263d 48fa a43d a7d0 17bd
00000310: fd67 0d3c 3615 1abc 0225 56bd 5aea 163d
00000320: 8a69 c53d 8f3b 663d 69f5 d53c 5f3e 563d
00000330: ce6e 573d 05c0 7c3c b634 8dbc cd9a 4db9
00000340: 9021 db3c 128c 333d fc9a 633c f2d1 b73c
00000350: 1564 6d3d 7f32 df3c 4cb0 d5ba 8d1f e2bc
00000360: b0d2 c53c e159 93bb 1fb7 b9bc a630 a83c
00000370: d4e7 213d eecf 213d f9bd c23d ad23 04bd
00000380: 960b 23bc f50b 26bd 63c1 183d 0fe1 683d
00000390: 6038 d93d ebe3 543d c290 433d 3eaf 943d
000003a0: d6a7 1d3d b6b8 343c 5b51 bcbc 5ad2 533c
000003b0: 31bb ba3c 928b 1d3d 57a2 c4ba 518e 223a
000003c0: b271 62bc 13c0 0bbc 0558 1dbd 10b0 f43b
000003d0: eb1f 7b3d cd8f 54bc 54e5 05bd 4315 573d
000003e0: 62cf 153d 9f53 ae3d eec8 253d a017 a7bc
000003f0: b019 43bc 6f3d 6fbd d30e 0fbd f6e1 803c
0.010127002 -0.0073927394 -0.0006485235 -0.0015930932 0.048343346 -0.01804456 0.05326568 0.040152814
0.15469873 0.14573005 0.122284345 0.090642795 0.045510884 0.013607209 -0.007982243 -0.1288843
-0.094507255 -0.004880713 -0.022828948 -0.062072802 0.011882131 0.16005015 0.102978595 0.025003709
-0.007764148 0.022725286 -0.028470598 0.010752376 -0.0034665863 0.004060928 0.00063836644 -0.020963812
0.052679226 -0.04604634 -0.008863235 -0.039104022 0.00017032298 0.03482817 -0.013862018 -0.034824207
-0.0073420606 -0.05675238 -0.08424917 -0.09228907 -0.07803906 0.041129176 0.028423594 -0.0070231007
-0.02740099 0.034839183 -0.0035564876 -0.012980305 -0.010591797 0.08254814 -0.014996771 0.005664936
0.003182171 0.00095782935 0.007241076 0.012068101 -0.03005856 -0.039441936 0.050067615 -0.021921797
0.06300256 0.031107204 0.039640978 0.0027612709 -0.00072978163 0.0481319 0.04964168 0.022391543
0.03815937 0.03289247 0.048984863 0.09341683 0.0900952 0.07645408 0.012089722 -0.03311273
-0.050570033 0.07661654 0.0313197 0.025790444 -0.0055917604 0.008625277 -0.012561235 -0.029414611
-0.040774222 0.0026848176 0.07762352 0.045497876 0.012783843 0.00091272726 0.026837116 -0.048420217
-0.078256026 0.0004868702 0.034301706 -0.0073667136 0.015097535 -0.024869202 -0.01648087 0.016846215
-0.011954404 0.0016450316 0.10020845 0.04929074 0.013236847 0.10540769 0.014211913 0.016037554
-0.010195746 -0.020714296 0.02426229 -0.030821472 -0.04834819 0.008555972 0.05362864 0.011383009
0.0021784455 -0.0059308135 -0.014577598 -0.027190045 -0.036426045 0.02751849 -0.011447621 -0.027763383
0.028980605 0.039911617 0.0020088505 -0.020889476 -0.029096639 -0.016632877 0.012601297 0.08276062
0.040329486 0.1331179 0.06157245 -0.024016125 0.0005304236 -0.028410405 0.016959412 -0.028324818
0.07165103 0.013983739 -0.0021903766 -0.046397667 0.008011997 0.053008493 -0.016930941 -0.026244324
-0.01197846 0.007076897 -0.03013539 -0.034297872 0.03813171 -0.004300376 -0.0014277253 -0.024653161
-0.012948716 -0.059118688 -0.012421479 0.06304579 0.088978276 0.06416177 0.07488226 -0.0792434
-0.003461256 0.024116397 0.0020654546 -0.02321377 0.005215139 0.08134243 -0.00012682343 0.048310857
0.01641612 -0.011631797 0.010153892 -0.014872805 0.010682617 0.0011543309 0.0023821238 -0.007376205
0.023577666 0.037862774 -0.01769167 -0.0036904365 0.019584598 -0.061100986 -0.043852765 0.03078789
0.030389002 0.040650297 0.0805555 -0.03706422 0.00863075 -0.009404471 -0.052281387 0.03684459
0.096392706 0.056209143 0.026117997 0.052305575 0.052595906 0.01542664 -0.017237049 -0.00019607991
0.026749402 0.043834753 0.013891932 0.022438977 0.057956774 0.027245758 -0.0016303151 -0.027602935
0.024148315 -0.0044967984 -0.022670327 0.02053101 0.03952773 0.039504938 0.09508891 -0.032260586
-0.009951493 -0.040538747 0.037293803 0.056855258 0.10606456 0.051975172 0.047745474 0.07259987
0.03849014 0.011030367 -0.022988012 0.01292857 0.022794338 0.038463183 -0.0015001994 0.00062010164
-0.013821052 -0.008529681 -0.03841402 0.0074672773 0.061309736 -0.012973738 -0.032689407 0.05251051
0.03657473 0.08512043 0.040474825 -0.020397007 -0.01190798 -0.058408197 -0.034926247 0.015732747
